numpyInferenceEngine/LeNet_CIFAR10/LeNet_Small_weights.pkl (torch, 302126 bytes, 7 tensors)

conv1.weight f4 [6, 3, 5, 5]
0	0xbc9233d8	-0.017846987
1	0xbce9c1b8	-0.028534755
2	0x3d59d222	0.053178914
3	0xbd6b84db	-0.057499748
4	0x3d2d6344	0.042330995
5	0xbd842f2d	-0.064543106
6	0xbda21d52	-0.07915749
7	0xbd71f9b8	-0.05907604
8	0x3be26ec3	0.0069101765
9	0xbd9c00ba	-0.07617326
10	0xbd8c653d	-0.06855247
11	0x3dbd7194	0.09250179
12	0x3d601ae6	0.054713152
13	0xbd865fb8	-0.06561226
14	0x3ca96a70	0.020680636
15	0x3d78368e	0.060598902
16	0xbd5169d1	-0.051126305
17	0x3d9ad73e	0.075605854
18	0xbda2e418	-0.07953662
19	0x3dd45e2c	0.10369524
20	0x3e0b5319	0.13605918
21	0xbd050e67	-0.03248444
22	0xbd9aa8c1	-0.075517185
23	0xbd99940e	-0.07498942
24	0x3e0ab574	0.13545781
25	0xbd5d5a7d	-0.054041374
26	0xbb33f1aa	-0.0027457275
27	0x3c910290	0.017701417
28	0x3d7066aa	0.058691658
29	0x3bb76246	0.005596432
30	0xbd5b9d1d	-0.05361663
31	0x3dd09094	0.10183826
32	0x3c674793	0.014116186
33	0x3de5debc	0.11224124
34	0x3d97f487	0.07419687
35	0x3cffdbc2	0.031232718
36	0x3c8d51b7	0.017250879
37	0xbc6c07d2	-0.014406161
38	0xbd725094	-0.059158877
39	0x3df95cee	0.12175928
40	0xbdc61ef3	-0.09673872
41	0x3d08ebdc	0.033428058
42	0xbdd9f2dd	-0.106420256
43	0xbdcda3bb	-0.10040995
44	0x3dcdc4fd	0.10047338
45	0xbd9ac3e9	-0.07556898
46	0xbdeea16d	-0.11651883
47	0x3d09fe97	0.03369006
48	0xbcdee36a	-0.027208049
49	0x3ca8538e	0.020547654
50	0x3cafb377	0.02144788
51	0x3d8c416c	0.06848416
52	0xbda5ce30	-0.08095968
53	0xbdcda343	-0.10040905
54	0x3df3119b	0.11868592
55	0xbdf41b98	-0.119193256
56	0x3da831bf	0.08212613
57	0xbd7a118d	-0.061051894
58	0x3d6666ea	0.05625049
59	0x3c6de0ce	0.01451893
60	0xbe01ec40	-0.12687778
61	0x3cc6a6e7	0.024249507
62	0xbdf5a814	-0.11994949
63	0x3df510b0	0.119660735
64	0xbdb37804	-0.087631255
65	0x3da664ba	0.08124681
66	0x3cf4ec66	0.02989788
67	0x3dafc78c	0.085829824
68	0xbd41e2df	-0.0473355
69	0x3dcf91aa	0.10135205
70	0xbbaa6c2c	-0.0052008834
71	0xbdc1a9ac	-0.094561905
72	0xbd21d410	-0.03950888
73	0x3b3dace5	0.0028942164
74	0x3dbc4b34	0.09194031
75	0xbdba9b55	-0.091116585
76	0x3d688bb1	0.056773845
77	0x3d4d6abe	0.050150625
78	0x3d367641	0.04454637
79	0x3da6857d	0.081309296
80	0x3ddd0669	0.10792238
81	0x3dd4c49c	0.10389063
82	0xbdc71598	-0.097209156
83	0x3d268284	0.040651813
84	0xbd928b3c	-0.07155463
85	0x3d5be441	0.053684477
86	0xbd8141bc	-0.06311366
87	0xbda07551	-0.07834876
88	0xbc7c4624	-0.015397582
89	0x3df66f67	0.12032967
90	0x3dc7a53e	0.09748314
91	0x3cd17ef1	0.025573226
92	0xbd7b59d7	-0.061364975
93	0x3df340bd	0.11877582
94	0x3d9c034e	0.07617818
95	0x3d2f6ce9	0.042828474
96	0x3d922ad9	0.07137079
97	0x3c556e95	0.013026853
98	0x3cbc9730	0.02302131
99	0xbcd43852	-0.025905762
100	0xbd836fec	-0.06417832
101	0xbda4afdd	-0.08041356
102	0xbcec9679	-0.028880345
103	0x3ceef519	0.029169606
104	0xbb9a49cc	-0.0047085043
105	0xbdafa983	-0.08577254
106	0xbd88b6aa	-0.066754654
107	0x3dd0d0e8	0.10196096
108	0x3d31c451	0.043400113
109	0xbd0bb3b2	-0.034106918
110	0x3c44a6ee	0.01200269
111	0xbb8cc59c	-0.004296018
112	0xbd9a814e	-0.07544194
113	0xbdb1a2fd	-0.08673666
114	0xbd8f3a0e	-0.06993495
115	0xbd226a0e	-0.039651923
116	0x3cfd5f99	0.030929374
117	0xbcb7ec2a	-0.022451479
118	0xbdb8fb26	-0.09032278
119	0x3ca05272	0.019570563
120	0xbdc08031	-0.093994506
121	0x3cd40895	0.025882998
122	0x3ce81568	0.02833052
123	0xbdadef95	-0.08492962
124	0xbcf2e52c	-0.029650293
125	0x3db80a13	0.089862965
126	0xbda93e32	-0.08263816
127	0x3d85e72a	0.06538232
128	0xbd161b1c	-0.036646947
129	0x3da4c67e	0.08045672
130	0x3d2e9fde	0.04263293
131	0xbda8ae92	-0.08236422
132	0x3d6a6e0a	0.057233848
133	0x3dbd654d	0.09247837
134	0x3d0c6ed8	0.034285396
135	0xbc8cf2bf	-0.017205594
136	0x3d98dcbc	0.07463977
137	0xbd964933	-0.073381804
138	0x3d268bc5	0.04066064
139	0xbdd1d66c	-0.10245976
140	0xbdcaff6e	-0.099120006
141	0xbda266f4	-0.07929793
142	0x3dae4def	0.085109584
143	0xbce5523a	-0.02799331
144	0xba9c29fe	-0.001191437
145	0x3de4f7f2	0.11180104
146	0x3d115180	0.035478115
147	0x3d788ec3	0.060683023
148	0xbdc8a49d	-0.097970225
149	0xbd32a0e2	-0.04361046
150	0x3b932865	0.0044908994
151	0xbd89870d	-0.06715212
152	0xbbcd513c	-0.0062657874
153	0x3dbba04f	0.09161436
154	0xbcbd1a52	-0.02308384
155	0xbd1f3a77	-0.038874116
156	0xbda42bd9	-0.08016176
157	0xbdcac794	-0.09901348
158	0x3db14c62	0.08657147
159	0xbc6c7263	-0.014431569
160	0x3da1fd2e	0.07909618
161	0xbdb93cb5	-0.09044782
162	0x3de05e05	0.10955433
163	0xbda9e925	-0.08296422
164	0x3d6d4e56	0.057936035
165	0xbdb51099	-0.088410564
166	0x3d57eb3a	0.052714564
167	0x3d0b9374	0.03407617
168	0x3d54f033	0.051986884
169	0xbcb24e64	-0.021765895
170	0xbba8ab7a	-0.0051473947
171	0x3c183161	0.009289117
172	0x3dc77d06	0.09740643
173	0x3d94857e	0.07252024
174	0xbd9de38d	-0.077094175
175	0xbd87a4b9	-0.06623215
176	0xbd084d95	-0.033277113
177	0xbd3807b1	-0.04492921
178	0xbc97b6b6	-0.01851974
179	0x3df0f556	0.11765544
180	0x3d76b6a2	0.060232766
181	0x3dbb5f61	0.091490515
182	0x3dacc4c8	0.084359705
183	0xbda55f7a	-0.08074851
184	0xbd423261	-0.047411326
185	0x3dbec07d	0.09314058
186	0xbb03ed7a	-0.002013056
187	0x3ad6f8ed	0.001640109
188	0xbd6f9941	-0.058495764
189	0xbd26e53e	-0.040745966
190	0x3ca72826	0.020404886
191	0xbdacb48d	-0.08432875
192	0x3dc5ed81	0.09664441
193	0x3d3ac6cd	0.045599747
194	0x3d10213b	0.03518794
195	0x3d0ce2dd	0.03439604
196	0xbceac1f8	-0.028656945
197	0x3d56b4b0	0.05241841
198	0x3b599a79	0.0033203645
199	0x3d90262b	0.0703853
200	0xbc9347c5	-0.017978558
201	0xbc336911	-0.010950343
202	0xbd8fbf1d	-0.07018874
203	0x3dad84ce	0.08472596
204	0x3b7656f0	0.003758844
205	0xbd1277fa	-0.03575895
206	0xbcf01311	-0.029305967
207	0x3d859d3e	0.06524132
208	0xbc8e6a66	-0.01738472
209	0x3d593e4a	0.05303792
210	0x3de057ce	0.109542474
211	0x3dc57e6d	0.096432544
212	0xbcdc7ba3	-0.026914423
213	0x3dcebc3a	0.10094495
214	0x3dc577a5	0.09641961
215	0x3cc21c81	0.023695232
216	0xbd107da4	-0.03527607
217	0x3d0996b4	0.033590987
218	0x3c784ee3	0.015155527
219	0x3dbef98f	0.09324943
220	0x3d7b4710	0.061347067
221	0xbd83e1f4	-0.064395815
222	0xbd558f1f	-0.052138444
223	0x3dfacfb7	0.1224665
224	0xbdc5a699	-0.096509166
225	0x3cee8060	0.029113948
226	0xbdd562a3	-0.10419204
227	0x3de80189	0.11328418
228	0x3db138ac	0.086533874
229	0x3deaeea2	0.11471297
230	0xbde39e38	-0.11114162
231	0x3d83d787	0.06437593
232	0x3d523a76	0.051325284
233	0xbbca4b99	-0.0061735627
234	0x3dbfe368	0.09369546
235	0x3c8faa28	0.017537192
236	0xbc62e800	-0.013849258
237	0x3d915fd4	0.07098356
238	0x3cda6d7d	0.026663536
239	0xbcc871d5	-0.024468342
240	0xbd28f599	-0.041249845
241	0xbd2c24bf	-0.04202723
242	0x3d114bb1	0.035472576
243	0x3de6b972	0.1126584
244	0xbd9e51e2	-0.07730462
245	0xbd5de1b3	-0.05417032
246	0xbdb8eb06	-0.09029202
247	0x3dc6a3a7	0.09699183
248	0x3d203a12	0.03911788
249	0xbc2e82da	-0.010651315
250	0xbdbe8f25	-0.093046464
251	0xbdd5405d	-0.10412667
252	0x3d32adaf	0.04362267
253	0x3c571374	0.013127197
254	0xbddde395	-0.108344235
255	0x3dc45580	0.0958662

conv2.weight f4 [16, 6, 5, 5]
0	0x3d3698f3	0.044579457
1	0x3d8f6d8f	0.070033185
2	0x3c077374	0.008267272
3	0xbb023b74	-0.0019871863
4	0xbcd3e928	-0.025868014
5	0x3dd054b3	0.10172405
6	0x3d6464aa	0.055760063
7	0x3d81b266	0.06332855
8	0xbd353e35	-0.04424878
9	0xbd7d958b	-0.061910193
10	0x3d6251d2	0.05525381
11	0x3d8b2a3a	0.067951635
12	0x3da7a948	0.08186585
13	0x3b067aab	0.0020519893
14	0x3a088440	0.0005207695
15	0xbc4d2cfb	-0.012522931
16	0xbc1b19fc	-0.009466644
17	0xbd8ed214	-0.06973663
18	0x3d56356e	0.05229705
19	0xbd17fb58	-0.037104934
20	0x3d6e6031	0.058197204
21	0xba6e681a	-0.0009094492
22	0x3cf12401	0.029436113
23	0x3a738717	0.00092898443
24	0x3cc313dc	0.02381318
25	0x3d8bf1ac	0.068332046
26	0xbd293333	-0.041308593
27	0x3c981f8e	0.018569734
28	0x3d5d5442	0.054035433
29	0x3ddcc551	0.107798226
30	0x3d5f7701	0.05455685
31	0x3d776720	0.060401082
32	0x3d9d8778	0.07691854
33	0x3dd8e3f5	0.10590354
34	0xbd52f69b	-0.051504713
35	0xbb06ffd0	-0.0020599253
36	0xbdab1037	-0.08352702
37	0x3d267c68	0.040645987
38	0x3d6db01f	0.05802929
39	0xbcd16a14	-0.025563277
40	0xbd9ed461	-0.07755352
41	0x3ca15334	0.019692995
42	0xbd353b2e	-0.04424589
43	0x3d7d412c	0.06182973
44	0xbd904bdd	-0.0704572
45	0xb9ee3566	-0.00045434682
46	0xbb311bdc	-0.0027024662
47	0x3d3dd147	0.04634216
48	0xbd274005	-0.04083254
49	0x3d97e71b	0.07417127
50	0xbd96466c	-0.07337651
51	0xbd3909f4	-0.045175508
52	0x3d7cf132	0.06175346
53	0x3d857fe3	0.06518533
54	0x3b483b13	0.003055279
55	0xbc55286c	-0.013010126
56	0x3d5fa9ee	0.054605417
57	0x3d554d49	0.052075658
58	0x3c867202	0.016411785
59	0xbd1f0dbb	-0.038831454
60	0xbd5c5102	-0.053788193
61	0x3d97bf6d	0.074095584
62	0x3cd18f5d	0.025581056
63	0xbd8c9687	-0.06864648
64	0xbd2899b9	-0.041162226
65	0xba26de19	-0.00063654926
66	0xbd8287d6	-0.06373565
67	0xbc21fe49	-0.009887286
68	0xbd34ff50	-0.044188797
69	0x3d03fc46	0.03222301
70	0xbd93e0f7	-0.07220643
71	0x3cfbac67	0.030721856
72	0x3c7125d7	0.014718494
73	0x3bef82d7	0.0073092985
74	0x3d419133	0.047257613
75	0xbcf09071	-0.02936575
76	0x3d8c2624	0.06843212
77	0xbd9a87e8	-0.07545453
78	0xbb087765	-0.0020823118
79	0x3d313cc4	0.04327084
80	0xbbcac73e	-0.0061883023
81	0xbd22af33	-0.039717864
82	0xbcf30bd2	-0.029668722
83	0x3d89b4dd	0.0672395
84	0x3d172c16	0.036907278
85	0x3c34d906	0.011038071
86	0xbd12a8a2	-0.035805352
87	0xbbc7a753	-0.0060929446
88	0xbb5756d2	-0.0032858145
89	0x3d43f80d	0.04784398
90	0xbc4f3bc6	-0.012648528
91	0x3cb6f3f6	0.022333127
92	0xb961c278	-0.00021530117
93	0xba851354	-0.0010152855
94	0xbb36b534	-0.0027879002
95	0xbd190d0a	-0.03736595
96	0x3d935e2c	0.07195696
97	0x3d839c54	0.064263016
98	0xbc4cbdb0	-0.012496397
99	0x3d6cf958	0.05785498
100	0x3dae2672	0.085034266
101	0xbcc59e50	-0.02412334
102	0xbd3a482f	-0.045478996
103	0xbcca2c4e	-0.02467933
104	0x3c751955	0.014959653
105	0x3ce0d77b	0.0274465
106	0x3d08ce89	0.033400092
107	0xbd5dccaf	-0.05415028
108	0xbbcfb4b0	-0.0063386783
109	0x3bf3378f	0.0074223946
110	0x3dbfe728	0.093702614
111	0xbd23c9a2	-0.039987214
112	0x3dc34ca0	0.095360994
113	0xbcb2fa49	-0.02184786
114	0xbd2dc6f8	-0.04242608
115	0xbcb7c57f	-0.02243304
116	0xbcb25f8b	-0.021774074
117	0xbc87320c	-0.016503356
118	0xbd3e82e6	-0.046511553
119	0x3d416953	0.047219586
120	0x3abc482c	0.0014364771
121	0x3d2b4603	0.041814815
122	0x3d8d5d90	0.06902611
123	0xbd45afc2	-0.04826332
124	0x3b809bfb	0.0039248443
125	0xbd583b9a	-0.052791215
126	0xbd04a859	-0.03238711
127	0xbcaf5699	-0.021403598
128	0x3cbe5281	0.0232327
129	0x3db6d34e	0.08927022
130	0x38fc32cf	0.0001202576
131	0xbb8dc50c	-0.0043264683
132	0xbd61ad20	-0.055096745
133	0x3b8dcfdd	0.0043277577
134	0xbdb0ff5a	-0.086424544
135	0x3d8a959b	0.06766816
136	0x3cec356e	0.028834071
137	0xbda44f07	-0.08022886
138	0xbd80c09f	-0.062867396
139	0xbdba04e2	-0.090829626
140	0xbd4ada05	-0.049524326
141	0xbd6e3741	-0.058158163
142	0xbd640b68	-0.05567494
143	0xbda6e6cc	-0.0814949
144	0xbc44a910	-0.012003198
145	0x3cc0543e	0.02347767
146	0x3db66d05	0.089075126
147	0xbd1fdc5c	-0.03902851
148	0x3d7918b3	0.06081457
149	0x3d0058f2	0.031334825
150	0x3c2bdb00	0.010489225
151	0x3ce87ef8	0.028380856
152	0x3d221aba	0.03957627
153	0xbda2b76c	-0.07945141
154	0x3d3f863f	0.046758886
155	0xbd31cd75	-0.04340883
156	0x3d7a9785	0.061179657
157	0x3dce5343	0.10074475
158	0xbd78141f	-0.060566064
159	0x3dc548ae	0.09633003
160	0xbbcefae5	-0.00631653
161	0xbc0c40d5	-0.008560379
162	0x3c5aee35	0.013362457
163	0x3d8b58d1	0.0680405
164	0x3d1a5495	0.03767832
165	0x3dc5601b	0.09637471
166	0x3d665349	0.05623177
167	0x3d15cbfc	0.036571488
168	0xbd6cb6b9	-0.057791445
169	0x3ccbe385	0.024888763
170	0x3d08c770	0.033393323
171	0xbd2891e4	-0.041154757
172	0x3da3ad13	0.07991996
173	0x3d6d145a	0.057880737
174	0x3cd923c1	0.026506307
175	0xbd3e92d5	-0.04652675
176	0x3d2518aa	0.040306725
177	0xbc6f61b3	-0.014610696
178	0x3c0e596c	0.008688312
179	0x3cbbff8c	0.022949003
180	0x3d402770	0.04691261
181	0x3d6ab293	0.057299208
182	0x3d18e91c	0.037331685
183	0xbab765aa	-0.001399209
184	0xbd15e981	-0.03659964
185	0xbd401ac1	-0.046900515
186	0xbd6803a5	-0.0566441
187	0xbd902b9f	-0.0703957
188	0x3b924a78	0.004464444
189	0x3b1558af	0.0022788455
190	0xbd45b663	-0.04826964
191	0xbceed460	-0.029154003
192	0xbc95e595	-0.01829795
193	0xbd7b507b	-0.06135605
194	0xbc79f996	-0.01525726
195	0xbd4371e5	-0.04771604
196	0x3d3e1d27	0.04641452
197	0x3d374bdd	0.044750083
198	0x3d82236b	0.06354412
199	0xbd3cda1c	-0.046106443
200	0xbceb1967	-0.028698636
201	0xbcf37c7f	-0.02972245
202	0x3d31db19	0.04342184
203	0x3d5786f2	0.05261893
204	0xbc99b20f	-0.018761663
205	0xbd652582	-0.055943973
206	0xbd26e2aa	-0.040743507
207	0xbd9265a0	-0.0714829
208	0xbd5dd915	-0.054162104
209	0xbd80fca7	-0.062981896
210	0x3d934240	0.071903706
211	0x3d31b152	0.043381996
212	0x3da08fb5	0.0783991
213	0x3c931b6f	0.017957417
214	0xbd927d14	-0.07152763
215	0xbd1f32ed	-0.038866926
216	0xbd54b6fb	-0.051932316
217	0x3dabe357	0.08392971
218	0x3d300fa6	0.042983674
219	0x3ce10e02	0.0274725
220	0xba8b96d6	-0.0010649811
221	0x3ca60b7f	0.020269154
222	0xbd474d1c	-0.04865752
223	0x3c0c3025	0.0085564
224	0xbcea8ff3	-0.028633093
225	0x3d24b418	0.040210813
226	0xbd0a9198	-0.033830255
227	0xbcb9e1fa	-0.022690762
228	0x3d26ec9d	0.040752996
229	0xbd84ebcc	-0.06490287
230	0x3d94bc3d	0.07262466
231	0xbd535762	-0.051597007
232	0xbd89db4c	-0.06731281
233	0x3d943ff9	0.07238764
234	0x3c8e0785	0.01733757
235	0x3dbf0b84	0.09328368
236	0xbca336ef	-0.019923655
237	0xbd174e3f	-0.036939856
238	0x3d699f62	0.057036765
239	0x3d47a39b	0.04874001
240	0x3d2e09e0	0.042489886
241	0x3b3129fd	0.0027033084
242	0xbd3f227d	-0.04666375
243	0xbcde4122	-0.027130667
244	0xbdb1bcf6	-0.086786196
245	0x3d33c267	0.04388657
246	0x3ce590eb	0.028023204
247	0x3d421830	0.04738635
248	0x3db0b083	0.08627417
249	0x3b911946	0.0044280617
250	0xbd99d3e5	-0.07511119
251	0xbd8c1b51	-0.06841148
252	0xbaad0bc2	-0.0013202357
253	0xbcf9af63	-0.030479139
254	0xbd7d3186	-0.061814807
255	0x3d6726d4	0.056433514

conv3.weight f4 [120, 16, 4, 4]
0	0xbd1eccea	-0.03876964
1	0xbd114b02	-0.035471924
2	0x3d4cce25	0.050001282
3	0xbd4ac063	-0.04949988
4	0xbcb822c6	-0.022477519
5	0xbd338f34	-0.04383774
6	0xbd59638c	-0.05307345
7	0x3bb6de85	0.0055807256
8	0xbce80baa	-0.028325874
9	0xbd476d46	-0.048688196
10	0xbb3d3e7e	-0.002887636
11	0xb83aa325	-4.4497796e-05
12	0xbc865b01	-0.016400816
13	0x3d03f081	0.032211784
14	0xbd5f402b	-0.054504555
15	0xbda71a53	-0.08159318
16	0xbc37c5b0	-0.011216566
17	0xbd83f8d4	-0.064439446
18	0xbdba9838	-0.09111065
19	0xbd861c2b	-0.06548341
20	0x3c1df04d	0.009639812
21	0x3d1d11de	0.038347118
22	0xba5db8be	-0.00084580097
23	0xbcc65ce9	-0.024214225
24	0xbba368b1	-0.0049868454
25	0xbd65103c	-0.055923685
26	0x3c1e85f4	0.009675492
27	0xbd844024	-0.06457546
28	0xbc814b15	-0.015782872
29	0xbcaa7887	-0.020809425
30	0xbca5edd4	-0.020255007
31	0x3ca4baac	0.020108543
32	0x3d3eb76c	0.046561643
33	0x3d2327ff	0.039833065
34	0x39ca748e	0.00038615282
35	0x3d534d13	0.051587176
36	0x3d14d70c	0.036337897
37	0xbd0dcdfb	-0.034620266
38	0xbc9faa56	-0.019490402
39	0xbd50e347	-0.050998
40	0xbd772336	-0.060336314
41	0x3cb8708b	0.022514602
42	0xbd4eeeb7	-0.050520625
43	0xbd608399	-0.054813
44	0x3d294ba6	0.04133191
45	0xbb2e2119	-0.002657002
46	0xbcce60da	-0.025192667
47	0x3cee00a8	0.029053047
48	0xbc8a6e2e	-0.01689824
49	0x3d525804	0.05135347
50	0xbd5b1518	-0.053486913
51	0xbd0db99c	-0.03460084
52	0x3cddc431	0.02707109
53	0x3d00b32c	0.03142087
54	0xba959890	-0.0011413265
55	0x3ccfc0cd	0.02536049
56	0xbd2ba133	-0.04190178
57	0xbb161a89	-0.0022904
58	0xbd485cb6	-0.04891654
59	0x3b883650	0.004156865
60	0x3b8297d1	0.003985383
61	0x3d865157	0.06558483
62	0x3bcc70ee	0.006239048
63	0x3d8a3d21	0.06749941
64	0x3d33fe05	0.043943424
65	0xbbad088d	-0.0052805603
66	0xbaf72686	-0.0018856085
67	0xbcde7f46	-0.027160298
68	0xbd1b7818	-0.037956327
69	0xbc9c5ae5	-0.01908631
70	0xbd34c49c	-0.044132814
71	0xbca062c5	-0.019578347
72	0xbda2e3d5	-0.07953612
73	0xbd1e5259	-0.03865275
74	0xbd60e3ae	-0.054904632
75	0xbd8cec69	-0.06881029
76	0xbd3b48cd	-0.045723725
77	0x3d04127c	0.03224419
78	0xbd74295e	-0.059609763
79	0xbc99b073	-0.018760895
80	0xbc5ec927	-0.013597763
81	0x3d959fae	0.07305847
82	0x3d15a81f	0.036537286
83	0x3cd85907	0.026409639
84	0x3d828924	0.06373814
85	0x3d216438	0.039402217
86	0xbd96bee3	-0.073606275
87	0xbc93acee	-0.018026795
88	0xbc6be7ea	-0.014398554
89	0xbbf4cf83	-0.0074710264
90	0xbd0b72c4	-0.034044996
91	0x3c6d6489	0.0144893015
92	0x3d0a0c3d	0.033703078
93	0x3d350704	0.044196144
94	0x3c718dc3	0.014743271
95	0x3d04b638	0.03240034
96	0x3d348b48	0.04407814
97	0xbd0f49cb	-0.034982484
98	0xbcc94838	-0.02457057
99	0x3d5c9031	0.05384845
100	0xbd2ba472	-0.041904874
101	0x3d52212f	0.051301178
102	0xbab3de65	-0.0013722895
103	0x3d4e422e	0.050356083
104	0xbc507316	-0.012722751
105	0x3ccc4492	0.02493504
106	0xbcf1c7c1	-0.029514195
107	0x3ccfb72b	0.025355896
108	0x3ccb9d0e	0.024855163
109	0xbc9b30a6	-0.018944096
110	0x3d1541a8	0.036439568
111	0xbcc638bc	-0.024196975
112	0x3d148f8b	0.036269706
113	0x3b26c9a0	0.0025449768
114	0xbd70e678	-0.058813542
115	0x3ca4e4f5	0.020128706
116	0x3c3eed8e	0.011653317
117	0xbc7ef7a0	-0.015561968
118	0xbd315db3	-0.04330225
119	0xbcf90b2d	-0.030400837
120	0x3ceffb9c	0.029294781
121	0x3d307d53	0.04308827
122	0xbd00ee01	-0.03147698
123	0x3d3fe7c7	0.0468519
124	0xbd62b1e5	-0.055345435
125	0xbd16f9b9	-0.036859248
126	0xbd53fd63	-0.05175532
127	0xbcee6b9a	-0.029104043
128	0x3bc57689	0.0060260934
129	0x3d832e3a	0.064053014
130	0xbd4afd97	-0.04955825
131	0x3c7c20c7	0.015388674
132	0xbcaab2ad	-0.020837152
133	0x3cf72b87	0.030172123
134	0x3c53ce0a	0.0129275415
135	0xbac1d142	-0.0014787095
136	0xbc40c047	-0.0117645925
137	0x3d5f98d3	0.054589104
138	0xbd0b1673	-0.033956956
139	0xbcdae249	-0.02671923
140	0x3cf760f5	0.0301976
141	0x3d276fed	0.040878225
142	0xbc854e67	-0.016272737
143	0x3d827b5f	0.063711874
144	0xbac50fe4	-0.0015034643
145	0xbd398709	-0.045294795
146	0x3b04fbc9	0.0020291677
147	0xbd0d5527	-0.034505036
148	0x3c4e9372	0.012608396
149	0xbc63c65a	-0.013902271
150	0x3cf6482a	0.030063707
151	0x3ce20fe8	0.027595475
152	0xbc2ffb05	-0.010741
153	0xbd3c430d	-0.045962382
154	0x3d4286c9	0.047491822
155	0xbce20320	-0.02758938
156	0x3d74d6f3	0.059775304
157	0xbcf36abd	-0.029713983
158	0xbc574b46	-0.013140505
159	0xbcd416cd	-0.025889779
160	0x3d126c10	0.035747588
161	0xbcd1fd15	-0.025633374
162	0x3cbcc6b4	0.023043968
163	0xbd3fe5b9	-0.04684994
164	0xbd3e9272	-0.04652638
165	0x3d29bd1b	0.04144011
166	0x3d4a0c39	0.049328063
167	0x3d7fc1b9	0.062440608
168	0xbcbece5b	-0.023291757
169	0xbda04ecd	-0.0782753
170	0xbd588762	-0.052863486
171	0x3bdd3c4f	0.006751574
172	0xbdc71833	-0.097214125
173	0x3ce8724c	0.028374813
174	0xbd96e860	-0.07368541
175	0x3cb18503	0.02166987
176	0x3daff380	0.08591366
177	0x3d81f567	0.06345635
178	0xbc968c79	-0.01837753
179	0xbc5bf89d	-0.013425973
180	0xbaa6454f	-0.001268545
181	0x3b0697ec	0.002053733
182	0x3d0c7824	0.034294263
183	0xbcb32361	-0.021867456
184	0xbd3d4df6	-0.046216927
185	0x3cc85e33	0.02445898
186	0xbbe46fba	-0.0069713267
187	0x3d9dab17	0.076986484
188	0xbcc66a6d	-0.02422067
189	0x3d6474cb	0.055775445
190	0xbc640a52	-0.013918476
191	0x3d98c15b	0.07458755
192	0x3d10a5b5	0.03531428
193	0x3d035a02	0.03206826
194	0xbcbc9e54	-0.023024715
195	0x3b4a35b1	0.0030854756
196	0xbd6508d2	-0.055916615
197	0xbd5859ad	-0.052819896
198	0xbd637955	-0.055535633
199	0xbd493873	-0.0491261
200	0xbd7f3448	-0.06230572
201	0xbbeb1f94	-0.0071753953
202	0xbd4985f9	-0.049200032
203	0x3d242c67	0.040081408
204	0xbd5dfb52	-0.054194756
205	0xbda32660	-0.07966304
206	0x3ca8e4d0	0.020616919
207	0xbdaca045	-0.084290065
208	0xbd355497	-0.044270124
209	0xbd2d5a14	-0.042322233
210	0xbcc0b6a5	-0.023524592
211	0x3d15bc75	0.03655668
212	0xbc7070ad	-0.0146753015
213	0x3cf4763a	0.029841531
214	0xbc233025	-0.009960209
215	0x3d0b8fea	0.034072794
216	0xbc7f3942	-0.015577616
217	0xbc832c0c	-0.016012214
218	0x3c85f3e1	0.016351642
219	0x3d2a1694	0.04152544
220	0x3d7ea1a9	0.06216589
221	0x3d381620	0.044942975
222	0x3d1d9621	0.038473252
223	0x3d8525ac	0.06501326
224	0xbcd3c098	-0.025848672
225	0x3d365f7f	0.044524666
226	0x3c0c6ea9	0.008571305
227	0xbcae9665	-0.021311948
228	0xbcab87d7	-0.020938797
229	0x3d028d2f	0.031872924
230	0xbb64d833	-0.0034918904
231	0xbd10a286	-0.035311244
232	0xbd6336f7	-0.05547234
233	0x3cbc8095	0.023010531
234	0xbcb4ccee	-0.022070374
235	0xbbdd59c2	-0.0067550847
236	0xbbba5d04	-0.005687358
237	0xbce644a1	-0.028108897
238	0x3c9bc449	0.019014494
239	0xbc5d05d8	-0.013490163
240	0x3d1d8a03	0.038461696
241	0xbb0f91e1	-0.002190702
242	0x3d6fec5d	0.058575023
243	0xbb3993fc	-0.0028316965
244	0xbd46979e	-0.048484437
245	0x3d008824	0.031379834
246	0x3d1a0ea1	0.037611607
247	0x3c314a42	0.010820927
248	0xbd3a3df9	-0.045469258
249	0x3d208ccc	0.039196774
250	0xbcdd762f	-0.027033893
251	0x3d4477f9	0.047965977
252	0x3cfade3b	0.030623546
253	0xbc682cb5	-0.014170815
254	0xbd111d5a	-0.035428382
255	0x3d016f78	0.031600446

linear1.weight f4 [84, 480]
0	0xbd2f2662	-0.042761214
1	0x39b192bc	0.00033869396
2	0x3d03473e	0.032050364
3	0xbcf81408	-0.03028299
4	0xbd432604	-0.047643676
5	0x3cc2e6d8	0.023791716
6	0xbd1eb02f	-0.03874224
7	0x3c30a008	0.010780342
8	0x3cef34e8	0.029200032
9	0xbd1b48f1	-0.03791136
10	0x3c696fdc	0.014247861
11	0x3d113d15	0.035458643
12	0x3ba7dcd3	0.00512276
13	0xbd0c765d	-0.034292568
14	0x3c987cff	0.01861429
15	0xbce8e175	-0.028427819
16	0xbc209a92	-0.009802477
17	0xbd0c93aa	-0.03432051
18	0x3d4a51de	0.04939448
19	0x3c5cad36	0.013469031
20	0x3bf01a2d	0.007327339
21	0xbb42d89d	-0.0029731162
22	0xbc141be7	-0.009039856
23	0xbd37d562	-0.044881232
24	0x3aa8b102	0.0012870135
25	0x3d13da54	0.036096886
26	0x3c92c7cb	0.017917534
27	0xbd2629ae	-0.040567093
28	0xbc6272e9	-0.013821342
29	0xbd397917	-0.045281496
30	0xbcfac0e3	-0.030609554
31	0x3d2b4831	0.041816894
32	0x3bfdae19	0.0077417013
33	0x3c445e33	0.0119853495
34	0xbc9f18cd	-0.019421006
35	0x3c117d43	0.008879962
36	0xbcdbe5ab	-0.026842913
37	0xbc37fb82	-0.011229398
38	0xbd2b7d4c	-0.04186754
39	0xbc8a469a	-0.016879369
40	0xbd19cf6d	-0.037551332
41	0xbc88464e	-0.016635086
42	0x3d28a7be	0.041175596
43	0xba964286	-0.0011463917
44	0x3bb77c03	0.0055995
45	0xbbe43897	-0.006964754
46	0x3d260727	0.040534165
47	0xbcea3393	-0.028589046
48	0x3d0f3349	0.03496102
49	0xbd479dc5	-0.048734445
50	0x3cad6d1c	0.021170191
51	0xbb648253	-0.0034867718
52	0xbc905750	-0.017619759
53	0x3ceb6f95	0.02873973
54	0x3c2d22cc	0.010567378
55	0x3ca496b2	0.020091388
56	0x3cb4d269	0.022072988
57	0xbd02fc3f	-0.031978842
58	0xbcd8132e	-0.026376333
59	0xbcbe033e	-0.023194905
60	0x3ccc8166	0.024964046
61	0xbc91ad0d	-0.017782712
62	0xbc8d4afa	-0.017247666
63	0xbcb3c4b4	-0.021944381
64	0x3d0fdeeb	0.0351247
65	0xbc1159d3	-0.008871513
66	0xbb0282f1	-0.0019914473
67	0x3b626773	0.0034546524
68	0x3cb31f8f	0.021865634
69	0xbc637bc0	-0.013884485
70	0x3d3691db	0.044572692
71	0xbc3cdc6c	-0.011527162
72	0x3ce2975c	0.027660064
73	0xbd1ecb05	-0.038767833
74	0x3d0598d4	0.03261645
75	0x3c9b923e	0.018990632
76	0x3c721916	0.014776489
77	0x3c5d0ca2	0.013491781
78	0x3c77d8a2	0.015127333
79	0x3cc1f0d3	0.023674404
80	0xbd264454	-0.040592507
81	0x3d054f43	0.032546293
82	0xbd4211a5	-0.04738011
83	0x3c23ebfa	0.010004992
84	0x3c1c3306	0.009533649
85	0xbc962c53	-0.018331682
86	0x3d07b510	0.03313166
87	0x3ceea086	0.029129278
88	0xbd330e29	-0.043714676
89	0x3d41c21c	0.047304258
90	0x3adc741f	0.0016819275
91	0xbd1d38ad	-0.03838413
92	0x3ccc2f2a	0.024924833
93	0xb9dc6868	-0.0004203946
94	0xbd69ea38	-0.057108134
95	0x3d40d76f	0.047080453
96	0x3d041625	0.03224768
97	0x3bab7c7f	0.005233347
98	0x3cbac19a	0.022797395
99	0x3d684e9f	0.056715604
100	0xbc25c275	-0.010117163
101	0x3c8fa034	0.017532445
102	0x3c8e485e	0.017368492
103	0xbcfb4b2b	-0.030675491
104	0xbbecd211	-0.0072271903
105	0x3d472fd6	0.048629604
106	0xbd31269e	-0.04324972
107	0xbc0745dd	-0.008256403
108	0xbd4cea78	-0.050028294
109	0x3b04a5cb	0.0020240422
110	0xbd4ed90c	-0.05049996
111	0xbc1258b1	-0.0089322785
112	0xbd1e2fde	-0.03861987
113	0xbd026f1f	-0.031844255
114	0xbc93c0ae	-0.018036213
115	0x3c47b6e2	0.012189599
116	0xbc489d7a	-0.012244577
117	0xbb7c41aa	-0.0038491287
118	0xbd20748a	-0.03917364
119	0xbcd5a0d2	-0.026077662
120	0x3c025773	0.00795542
121	0x3c086aa1	0.008326204
122	0xbcd4ec12	-0.025991473
123	0xbd231b41	-0.039820913
124	0xbc693894	-0.014234681
125	0xbd08588f	-0.03328758
126	0xbc9101b7	-0.017701013
127	0x3c0afada	0.008482659
128	0x3d0c4b34	0.034251407
129	0xbd2bd0b1	-0.04194707
130	0x3d29e3e3	0.041477095
131	0xbc33a68f	-0.010965004
132	0x3c697d69	0.0142510915
133	0xbd10b91b	-0.03533278
134	0x3ca61483	0.020273453
135	0x3d10d650	0.035360634
136	0xbcaf0b2a	-0.021367628
137	0xbd3436c7	-0.043997552
138	0x38af8027	8.3685205e-05
139	0x3ccacbdc	0.02475541
140	0xbba7f6f0	-0.005125873
141	0x3c9a0ef8	0.018805966
142	0xbd41887c	-0.047249302
143	0x3ca9558c	0.020670675
144	0x3bea8dec	0.0071580317
145	0x3cec8bf8	0.028875336
146	0x3d0e03a3	0.034671437
147	0xbceed8ea	-0.029156167
148	0xbd01a70c	-0.03165345
149	0xbd404ad7	-0.046946373
150	0xbbec3056	-0.0072079105
151	0x3d00999b	0.03139649
152	0xbbde2bc4	-0.0067801196
153	0x3d26055b	0.04053245
154	0xbc31ca19	-0.0108514065
155	0x3d0598dc	0.03261648
156	0xbc97ee61	-0.018546285
157	0x3d0914cd	0.033467103
158	0xbd1bac19	-0.038005922
159	0x3c870118	0.016480014
160	0xbcce27e6	-0.02516551
161	0x3d29e99b	0.04148255
162	0x3c3268b1	0.010889218
163	0x3d471691	0.048605505
164	0x3ced4f45	0.028968463
165	0xbcca9c3f	-0.024732707
166	0x3c09392b	0.008375446
167	0x3c9f64ac	0.019457184
168	0xbcdaac6d	-0.026693547
169	0xbd4bceeb	-0.04975788
170	0x3d01f1b2	0.03172464
171	0xbc4552ff	-0.012043714
172	0x3b03f7ea	0.0020136782
173	0x3ca383f3	0.01996038
174	0x3bf0a64a	0.007344042
175	0x3c94db2a	0.018170912
176	0x3cf4e2e6	0.02989335
177	0xbd505e9b	-0.050871473
178	0x3d3908b6	0.045174323
179	0xbc15d1e4	-0.00914428
180	0xbc6274a8	-0.013821758
181	0xbc4a4214	-0.012344856
182	0x3cf30339	0.029664623
183	0xbc8c96bf	-0.017161725
184	0xbcd00e94	-0.025397576
185	0x3c625a50	0.0138154775
186	0xbc387e77	-0.01126062
187	0x3cc44768	0.02395983
188	0x3bed0132	0.0072328085
189	0xbd0dca25	-0.03461661
190	0xbbe00223	-0.006836192
191	0x3c8f257b	0.017473927
192	0xbca97571	-0.020685883
193	0xbce1a963	-0.02754659
194	0x3bcb3af4	0.006202096
195	0x3d30c0ad	0.0431525
196	0x3c509d0a	0.0127327535
197	0x3a7bb6ee	0.0009602149
198	0xbd0ba429	-0.034092102
199	0xbcfc98c0	-0.030834556
200	0xbce56479	-0.02800201
201	0x3b37efcd	0.0028066516
202	0xbc7dbaa5	-0.015486394
203	0xbcf174a4	-0.029474564
204	0x3c64e440	0.013970435
205	0x3cae2bc8	0.02126111
206	0xbcb590b4	-0.022163726
207	0xbd4a9ef1	-0.049467985
208	0x3d167a29	0.036737595
209	0xbd2d1b81	-0.042262558
210	0x3d1e70a4	0.03868164
211	0xbd4fd677	-0.05074164
212	0xbd0aaae0	-0.033854365
213	0x3d2aac96	0.041668497
214	0x3c6cce2c	0.014453452
215	0x3cb0ce6d	0.021582806
216	0xbc85d81d	-0.016338402
217	0xbc75b64f	-0.014997079
218	0xbc6ec5c7	-0.014573521
219	0xbc8a1b0f	-0.016858606
220	0xbd0590cb	-0.03260879
221	0x3d2fded8	0.04293713
222	0xbcea7e02	-0.028624538
223	0xbcff916d	-0.031197274
224	0x3cfd2a9c	0.030904107
225	0x3b4d2909	0.0031304976
226	0xbd0cfaa0	-0.034418702
227	0x3c0a8c3c	0.008456286
228	0xbc06312b	-0.0081904335
229	0x3ce5d1e3	0.028054183
230	0x3d08f050	0.033432305
231	0x3c281150	0.010258034
232	0x3cdabebf	0.026702283
233	0x3ca908cc	0.020634077
234	0x3cd291c6	0.025704276
235	0x3d170138	0.036866397
236	0x3d298f71	0.041396562
237	0xbce7407b	-0.028228989
238	0xbd0fc76f	-0.035102304
239	0xbcb526da	-0.022113252
240	0xba9012b9	-0.0010991908
241	0x3d04eeb4	0.032454208
242	0x3cea6cf8	0.028616413
243	0xba7ace98	-0.0009567528
244	0xbcf16a6c	-0.029469691
245	0xbbf3404a	-0.0074234353
246	0x3cfd86a6	0.030947994
247	0xbd07ded0	-0.033171475
248	0x3d63234a	0.055453576
249	0xbc71ab61	-0.014750333
250	0xbb53dfd5	-0.003232946
251	0xbd0b2cc2	-0.03397823
252	0x3babf077	0.0052471715
253	0x3d0f5164	0.03498973
254	0x3c0318f5	0.008001556
255	0xbc70d952	-0.014700251

linear1.bias f4 [84]
0	0xbd106dbd	-0.035260905
1	0xbd3137bc	-0.043266043
2	0xbb821bac	-0.003970584
3	0x3db40caa	0.08791478
4	0x3c9e504d	0.0193254
5	0x3ce11880	0.027477503
6	0xbd90355b	-0.07041427
7	0x3c1d7be0	0.009612054
8	0xbc399cec	-0.011328917
9	0xbd2a16b1	-0.041525546
10	0xbd1c0c21	-0.038097505
11	0x3befde5a	0.0073202075
12	0x3c327853	0.010892945
13	0xbc1ba00c	-0.009498607
14	0x3cec39fa	0.02883624
15	0x3d0210c7	0.03175428
16	0x3be31599	0.006930065
17	0x3d248a54	0.040170982
18	0xbd6e5385	-0.05818512
19	0x3cc50ec4	0.024054892
20	0x3cd5a4cd	0.02607956
21	0x3d1672b8	0.036730498
22	0xbca406bf	-0.020022748
23	0xbd9a27f5	-0.075271524
24	0x3cbb46f4	0.022860982
25	0x3c17fb9c	0.009276297
26	0xbd166010	-0.036712706
27	0x3b332a42	0.002733842
28	0x3cf78e80	0.030219316
29	0xbdd9ad75	-0.106287874
30	0xbc91f899	-0.017818736
31	0xbc49a005	-0.012306218
32	0x3d7c56ff	0.061606403
33	0x3c846000	0.016159058
34	0x3d6c5693	0.05769975
35	0xbcd9fda5	-0.026610205
36	0xbc716b61	-0.014735074
37	0x3c166f9f	0.009181886
38	0x3bdc68d8	0.0067263655
39	0xbd6353a6	-0.055499695
40	0xbd03a477	-0.032139268
41	0xbd34dc82	-0.044155605
42	0x3ce4a133	0.027908897
43	0x3d02b98e	0.03191524
44	0xbd1b246f	-0.037876543
45	0xbb62f49d	-0.0034630664
46	0xbd1bfa62	-0.03808058
47	0x3d4f0b22	0.050547726
48	0xbd026935	-0.031838614
49	0x3d5401f7	0.051759686
50	0xbd152518	-0.03641233
51	0xbd0b148f	-0.033955153
52	0x3d00e963	0.031472575
53	0x3cb128ec	0.021625958
54	0x3d717f05	0.058959026
55	0x3ca5f7d1	0.02025977
56	0x3db60706	0.08888058
57	0xbcb8cfb0	-0.02255997
58	0x3d8a342d	0.06748233
59	0x3d1ea9c9	0.03873614
60	0xbcc4814e	-0.023987439
61	0xbc26ddba	-0.0101847
62	0xbb8ac640	-0.004235059
63	0xbd047b5e	-0.032344215
64	0x3b886fa6	0.0041637
65	0xbc2e545d	-0.010640231
66	0x39f9d1b3	0.0004764922
67	0xbcebbb22	-0.028775755
68	0x3d093182	0.03349448
69	0x3cfabbeb	0.030607184
70	0xba65d5d6	-0.0008767521
71	0xbc89f72b	-0.016841492
72	0x3d2a5446	0.041584276
73	0x3b95f391	0.0045761545
74	0xbc37b534	-0.011212636
75	0xbc98b6b1	-0.018641802
76	0x3bd40ef8	0.006471511
77	0xbc8db00b	-0.017295858
78	0xbcd7369b	-0.026271155
79	0x3c14216e	0.009041173
80	0xba7aac79	-0.00095624436
81	0x3c33a120	0.010963708
82	0xbc90908c	-0.01764705
83	0x3c7432cf	0.014904692

linear2.weight f4 [10, 84]
0	0xbcf79de3	-0.030226653
1	0x3d4f65b8	0.050634116
2	0xbd091742	-0.033469446
3	0x3bae55e3	0.005320297
4	0xbd30cbd6	-0.043163143
5	0xbd074fe4	-0.033035174
6	0x3d40bee9	0.047057066
7	0x3c8c2734	0.017108537
8	0x3d9791e7	0.074008755
9	0x3d49ab75	0.04923578
10	0xbb593fe0	-0.0033149645
11	0x3d911550	0.07084143
12	0xbcc1fff7	-0.023681624
13	0x3d5d5e1d	0.05404483
14	0x3d82553c	0.063639134
15	0xbd4da617	-0.050207224
16	0xbcd501ea	-0.02600189
17	0xbdfbc630	-0.12293661
18	0x3d245954	0.040124252
19	0x3da40d69	0.0801037
20	0x3cb4a9b7	0.022053583
21	0xbdb0aa4e	-0.08626233
22	0xbde5d075	-0.11221401
23	0xbb729bd9	-0.0037019162
24	0xbd3500a7	-0.044190075
25	0x3d68652e	0.056737117
26	0xbd10276b	-0.035193842
27	0x3dc64e69	0.09682924
28	0xbd637f28	-0.055541188
29	0x3de36373	0.11102953
30	0xbe099fc8	-0.13439858
31	0x3a242062	0.0006260929
32	0xbc390bd9	-0.011294329
33	0xbddebfaa	-0.10876401
34	0x3c0f9fdb	0.00876614
35	0x3d58f6dd	0.052969802
36	0x3dd1492a	0.10219033
37	0xbd606a0b	-0.05478863
38	0xbd2bcb47	-0.041941907
39	0x3d789fc0	0.060699224
40	0xbd2045de	-0.03912913
41	0x3cb042ac	0.021516167
42	0xbd3fd232	-0.046831317
43	0xbce0ff32	-0.027465437
44	0x3db730e8	0.08944875
45	0x3d1535b9	0.036428187
46	0x3d4249d0	0.047433674
47	0xbd99d4fe	-0.07511328
48	0xbc9cdf01	-0.019149305
49	0x3dd4e4d9	0.10395212
50	0x3df1b80f	0.118026845
51	0xbd2a88ed	-0.04163449
52	0xbd3e216c	-0.046418592
53	0x3d5a04b5	0.053227145
54	0xbde14fb4	-0.1100153
55	0xbd027818	-0.03185281
56	0xbc7ff5f1	-0.015622602
57	0x3cec7963	0.028866475
58	0xbd91c537	-0.07117694
59	0x3cb3a951	0.021931322
60	0x3caabbf2	0.020841572
61	0x3d8382da	0.06421442
62	0x3d594e94	0.053053454
63	0xbcf650d8	-0.030067846
64	0xbddaf831	-0.1069187
65	0x3d8e4ab4	0.06947842
66	0x3cb9e9b0	0.022694439
67	0x3e116b86	0.14201173
68	0xbc123892	-0.00892462
69	0x3da436cd	0.08018265
70	0x3ddee1ad	0.10882888
71	0x3c4e07d4	0.012575109
72	0x3c05a323	0.008156571
73	0xbcec4da8	-0.028845623
74	0xbd6ac754	-0.057319
75	0x3e034073	0.12817554
76	0xbdbb0a82	-0.091328636
77	0xbdac43c6	-0.08411364
78	0x3da26a68	0.07930452
79	0x3da6ee58	0.08150929
80	0x3cf8bc78	0.030363306
81	0x3d2f9683	0.04286815
82	0x3dad6480	0.084664345
83	0x3cdb9c5a	0.026807953
84	0x3d75e213	0.060030054
85	0xbd1fb00b	-0.038986247
86	0xbdc3a710	-0.09553349
87	0x3bfa3e59	0.007636827
88	0x3d9009d1	0.07033122
89	0xbd2c017d	-0.041993607
90	0xbda45dbe	-0.080256924
91	0x3d665bb9	0.056239817
92	0x3dab940c	0.08377847
93	0x3d7d0736	0.061774455
94	0xbdce709a	-0.10080071
95	0x3d8ebec4	0.069699794
96	0xbdd2fe13	-0.10302367
97	0x3dd8ee27	0.10592299
98	0xbd851bef	-0.064994685
99	0xbd5e400c	-0.0542603
100	0xbdefb7de	-0.11704992
101	0xbc0eb7db	-0.008710827
102	0xbdfdf201	-0.12399674
103	0x3d71d0ce	0.059037022
104	0xbb57798d	-0.0032878846
105	0x3cd506fd	0.026004309
106	0x3db709c9	0.08937413
107	0x3dbfef17	0.09371775
108	0x3d259737	0.040427413
109	0xbdfcf638	-0.1235165
110	0x3dd3e9a5	0.103472985
111	0x3d9a0ccb	0.07521971
112	0xbd894edd	-0.06704495
113	0xbc1dc55e	-0.009629576
114	0x3d64187a	0.055687405
115	0xbdd54142	-0.104128376
116	0x3d69d8e4	0.05709161
117	0xbd7e8385	-0.062137146
118	0x3dabde45	0.08392004
119	0xbd6e96d2	-0.058249302
120	0xbd939e2d	-0.07207904
121	0xba4875d4	-0.0007646952
122	0xbce2f103	-0.027702814
123	0xbc868de0	-0.016425073
124	0x3ba300b3	0.0049744486
125	0x3c4a85ce	0.012361003
126	0xbda62b58	-0.08113736
127	0x3dc462dd	0.09589169
128	0x3d6abd13	0.05730922
129	0x3a9b14f6	0.0011831808
130	0xbde610c2	-0.11233665
131	0xbc6edcbf	-0.014578997
132	0xbdadabb7	-0.08480018
133	0x3d8807f0	0.06642139
134	0xbc4d6492	-0.012536185
135	0xbb834ae6	-0.0040067313
136	0x3d51136c	0.051043913
137	0xbdacb687	-0.08433252
138	0x3d089e54	0.03335412
139	0xbdf08438	-0.11743969
140	0x3d8b8613	0.06812682
141	0xbd8462e5	-0.06464175
142	0xbd7ba131	-0.06143302
143	0xbd6f9953	-0.05849583
144	0xbd97d942	-0.074144855
145	0x3df3745d	0.11887429
146	0xbd9f435c	-0.0777652
147	0x3d71d6e1	0.059042815
148	0x3dae3663	0.08506467
149	0x3d80be4c	0.06286296
150	0xbd409b95	-0.047023375
151	0xbdab49c2	-0.083636776
152	0x3e08f961	0.1337638
153	0xbde2891b	-0.11061307
154	0x3d314a33	0.043283653
155	0x3dadcf87	0.08486848
156	0xbe010548	-0.12599671
157	0xbdd55c0a	-0.10417946
158	0x3c731c29	0.014838257
159	0x3df48ae0	0.11940551
160	0xbd14e9ba	-0.03635571
161	0x3d010c42	0.03150583
162	0x3d65c714	0.05609806
163	0xbce072e8	-0.027398542
164	0x3dad45bf	0.08460569
165	0x3c77e0c4	0.015129272
166	0x3cf3eddc	0.029776506
167	0xbdad3500	-0.084573746
168	0x3d51335e	0.05107438
169	0x3d065916	0.032799803
170	0x3d593ac4	0.05303456
171	0x3d80f536	0.0629677
172	0x3d4ae16e	0.049531393
173	0x3dd86503	0.105661415
174	0x3ca36c30	0.019949049
175	0xbd890182	-0.06689741
176	0xbd982cd5	-0.07430426
177	0x3dac481a	0.0841219
178	0x3c44384c	0.011976313
179	0xbd988eed	-0.07449136
180	0xbd749110	-0.059708655
181	0xbc5fb402	-0.013653757
182	0x3dc1576d	0.09440503
183	0xbdb0e35f	-0.086371176
184	0xbdfc3953	-0.12315621
185	0xbdc926c9	-0.09821851
186	0x3d6ed8bd	0.058312166
187	0xbda905b1	-0.08253039
188	0xbc042a08	-0.008066662
189	0x3d8695e6	0.065715596
190	0xbbe6fdd4	-0.0070493016
191	0x3d4c7e1c	0.049924955
192	0x3dbbf2a4	0.091771394
193	0x3df907ba	0.12159677
194	0xbcd541b5	-0.026032308
195	0xbd801c07	-0.06255346
196	0xbd1eadf4	-0.038740113
197	0xbdb36340	-0.08759165
198	0x3da4ed65	0.08053092
199	0xbdd62507	-0.10456281
200	0x3d83d923	0.064379
201	0x3dd13762	0.102156416
202	0x3dba2d12	0.09090628
203	0x3ce329a1	0.027729811
204	0x3d076cda	0.033062793
205	0x3dc90017	0.0981447
206	0xbd9154d3	-0.07096257
207	0x3d5e1884	0.0542226
208	0xbdec4aac	-0.1153768
209	0xbde5b40c	-0.11215982
210	0xbd1e5f85	-0.038665313
211	0x3dac1341	0.0840211
212	0x3dcecece	0.100980386
213	0x3d013d1d	0.031552423
214	0xbc3b9df6	-0.011451235
215	0xbd7ef910	-0.062249243
216	0xbde9b234	-0.11410943
217	0x3da5f17e	0.081027016
218	0x3dbe4da8	0.092921555
219	0xbdaa5e78	-0.083188
220	0x3dbb506a	0.09146197
221	0x3dab6791	0.08369363
222	0x3d046dc0	0.03233123
223	0x3d8037a0	0.062606096
224	0x3c0ff08a	0.008785376
225	0x3c098f7b	0.008396025
226	0x3dd6336e	0.10459028
227	0x3d9a88f1	0.07545651
228	0x3bb92472	0.0056500966
229	0xbcaea543	-0.021319037
230	0x3dce2be6	0.10066967
231	0xbd623a87	-0.055231597
232	0xbcf9f76d	-0.03051349
233	0xbdf4f48c	-0.11960706
234	0xbddd69f5	-0.10811225
235	0xbde681a5	-0.112551965
236	0xbc761b9a	-0.015021229
237	0x3daef4f2	0.08542813
238	0x3df99a97	0.12187689
239	0xbdc27ed8	-0.0949685
240	0x3de7432c	0.11292109
241	0xbbd7c64b	-0.0065849177
242	0x3c938c6e	0.018011298
243	0xbb7ca1cc	-0.0038548587
244	0x3ce66ed7	0.028129024
245	0x3da149d8	0.07875413
246	0x3d19d13f	0.03755307
247	0x3cf6fe6b	0.030150613
248	0xbc817dd8	-0.015807077
249	0x3d3ff904	0.04686834
250	0x3d02c234	0.031923488
251	0xbdc3cf33	-0.095610045
252	0xbdae5894	-0.08512989
253	0x3d11005e	0.03540074
254	0x3da1753e	0.0788369
255	0xbdb4e6ac	-0.0883306

linear2.bias f4 [10]
0	0x3b9730b9	0.0046139625
1	0xbdc02919	-0.09382839
2	0xbd1886b2	-0.03723783
3	0x3dbd2c34	0.09236947
4	0x3d359195	0.04432829
5	0xbda6f206	-0.08151631
6	0x3ba21697	0.0049465406
7	0x3c8f228c	0.017472528
8	0xbdb7d286	-0.08975701
9	0x3d90ddf0	0.07073581
