numpyInferenceEngine/BobNet/weights.pkl (torch, 407745 bytes, 2 tensors)

l1.weight f4 [128, 784]
0	0xbc733fd8	-0.0148467645
1	0xbcb46c63	-0.022024339
2	0x3d034416	0.032047354
3	0x3cbad121	0.022804799
4	0x3cd25451	0.02567497
5	0x3b513b4a	0.0031926208
6	0x3c4e9061	0.012607665
7	0xbcb84edc	-0.02249854
8	0xbc3e5857	-0.011617742
9	0xba8b734a	-0.0010639217
10	0xbcc5e257	-0.024155779
11	0xbcb9aeb1	-0.022666307
12	0x3d0098fe	0.031395905
13	0xbbed9f93	-0.0072516887
14	0xbc1f49c5	-0.009722178
15	0x3d0cfc9b	0.03442059
16	0xbcd6afd5	-0.02620689
17	0xbd0a8d60	-0.033826232
18	0x39bee525	0.0003641035
19	0xbc51b4a1	-0.012799413
20	0x3cf0af6e	0.029380526
21	0x3c8bd2f3	0.017068362
22	0x3d0d25c7	0.034459855
23	0xbc2da8e5	-0.01059935
24	0xbb555f81	-0.0032558145
25	0xbcd4fd4e	-0.025999691
26	0xbc692a01	-0.014231206
27	0xbb673925	-0.0035281864
28	0x3cb81d15	0.022474805
29	0xbc4749f7	-0.012163631
30	0x3c4f0c5c	0.012637224
31	0x3be8bddc	0.007102711
32	0xbce8b401	-0.028406145
33	0x3cb97311	0.022637876
34	0x3c45ab45	0.01206476
35	0xbb4f28a5	-0.003160992
36	0xbd00ea0d	-0.03147321
37	0x3bb5aeb7	0.0055445093
38	0x3d0b9dc8	0.03408602
39	0xbc46f42e	-0.012143178
40	0x3b9e7f9c	0.0048369896
41	0xbba9261c	-0.0051620137
42	0xbd0c83fd	-0.03430556
43	0x3c703f77	0.014663569
44	0x39d3adcb	0.00040374542
45	0xbcf09461	-0.029367628
46	0xbca232ba	-0.019799579
47	0xbc164c6e	-0.009173496
48	0xbd0e6a72	-0.034769483
49	0xbce214aa	-0.027597744
50	0xbcb9c407	-0.022676481
51	0xbbd9925c	-0.006639762
52	0x3c6747e1	0.014116258
53	0xbc90033c	-0.017579667
54	0x3c0eb300	0.008709669
55	0xbcf7c55e	-0.03024548
56	0xbd0c0684	-0.0341859
57	0x3cefbefc	0.029265873
58	0x3b8957b7	0.0041913646
59	0x3c607165	0.01369891
60	0xbb321fca	-0.0027179592
61	0x3caf516a	0.021401126
62	0xbc2c45fc	-0.010514732
63	0xbcbcfd31	-0.02306995
64	0xbd031894	-0.03200586
65	0xbcc417b1	-0.023937078
66	0x3c976784	0.018481977
67	0xbcb5dcff	-0.022200106
68	0x3d151f26	0.03640666
69	0xbcb49ef2	-0.022048447
70	0x3d00424b	0.031313222
71	0xbb3ccfb9	-0.0028810336
72	0xbb93bc13	-0.004508504
73	0xbc833330	-0.016015619
74	0x3c159c17	0.009131453
75	0xbcd865b2	-0.02641568
76	0x3d1c4717	0.038153734
77	0xbbbe04e7	-0.0057989242
78	0x3d313cf9	0.04327104
79	0x3d4605c4	0.048345342
80	0x3d03aae2	0.03214539
81	0xbc4bcebc	-0.012439426
82	0xbbcdb641	-0.00627783
83	0x3caaac6a	0.020834167
84	0xbd0c8650	-0.034307778
85	0xbcc05917	-0.023479981
86	0x3c4781f7	0.012176982
87	0x3c51286a	0.012765983
88	0x3cae9a53	0.021313822
89	0x3c47d10e	0.012195839
90	0xbc29d8ce	-0.010366632
91	0xbca74f03	-0.020423418
92	0x3b9e1b13	0.004825005
93	0xbc36af49	-0.01115019
94	0xbc203e23	-0.00978044
95	0xbc838ead	-0.016059244
96	0xba7e3901	-0.00096978253
97	0xbc86a852	-0.016437683
98	0xbab61f17	-0.0013894764
99	0xbc80c966	-0.015721034
100	0xbcd1d3b3	-0.025613641
101	0x3cef7428	0.029230192
102	0x3c814146	0.015778195
103	0x3be43a77	0.0069649774
104	0xbb38d04d	-0.0028200329
105	0x3c592fa1	0.0132559845
106	0xbca0be37	-0.019621952
107	0x3c743361	0.014904828
108	0xbcfb64ee	-0.030687775
109	0xbb64f938	-0.0034938585
110	0xbca8e7d3	-0.020618355
111	0x3ce7ec65	0.028310964
112	0xbc21d3a5	-0.00987712
113	0x3cac660c	0.021044753
114	0x3c61aff8	0.013774864
115	0x3ccee07a	0.025253523
116	0x3c8582f5	0.016297797
117	0xbcbab63f	-0.02279198
118	0x3b99f639	0.0046985415
119	0xbcf6bab8	-0.030118331
120	0xbce0da07	-0.027447714
121	0xbcb18408	-0.021669403
122	0xbc3b314c	-0.0114253275
123	0x3cd6f5c0	0.02624023
124	0xbb685d5e	-0.0035456042
125	0xbc7f97f0	-0.01560019
126	0xbce3c832	-0.027805422
127	0xbd0d1501	-0.03444386
128	0xbc35f2f7	-0.011105291
129	0x3cdc0c8f	0.026861457
130	0xbc4bdb6b	-0.01244245
131	0x3cf89b5b	0.030347517
132	0xbc0edf34	-0.008720208
133	0xbc9ea436	-0.019365411
134	0x3d15f638	0.036611766
135	0xbcb09337	-0.021554573
136	0x3ca82c6a	0.02052899
137	0x3d943298	0.072362125
138	0x3bc31065	0.005952882
139	0x3cc92665	0.02455444
140	0x3ca57bb3	0.020200586
141	0xbbcc5525	-0.006235736
142	0x3d0ce384	0.034396663
143	0xbcabfa46	-0.020993363
144	0x3ccd7d8e	0.025084283
145	0xbc9483b9	-0.018129217
146	0xbc2aaa65	-0.010416602
147	0xbcabfde8	-0.020995095
148	0x3c75c561	0.015000672
149	0x3c82b35e	0.01595467
150	0xbc995a09	-0.01871969
151	0xbb8d0c00	-0.004304409
152	0x3cd824ba	0.0263847
153	0x3bc10d8d	0.005891508
154	0xbaab5b74	-0.001307352
155	0x3cc871ba	0.024468292
156	0x3ce06022	0.02738959
157	0x3bdf4424	0.006813543
158	0xbc489cc1	-0.012244404
159	0xbd3647b7	-0.044501986
160	0xbaf3a302	-0.0018588009
161	0xbd018a89	-0.031626258
162	0x3a87ea8e	0.0010369585
163	0x3bdf1725	0.006808179
164	0x3c54ecfe	0.012995956
165	0x3ca21853	0.01978699
166	0x3cb024ed	0.021501983
167	0xbbd7dfae	-0.006587944
168	0x3c4b0345	0.012390916
169	0xbcf498e5	-0.029858062
170	0x3ba87c9c	0.0051418077
171	0x3c308978	0.010774963
172	0xbcf70493	-0.030153548
173	0x3cbc625e	0.022996124
174	0xbcc837dd	-0.0244407
175	0xbbe90113	-0.0071107238
176	0xbc7614ed	-0.0150196375
177	0xbcfd2a15	-0.030903855
178	0x3cc84b4a	0.024449963
179	0xbbdce8d2	-0.0067416215
180	0xbd0eac81	-0.03483248
181	0xbba00cfc	-0.0048843604
182	0x3be458bd	0.0069685862
183	0x3a8e32f3	0.0010848924
184	0x3cda7beb	0.026670417
185	0xbc12de30	-0.008964106
186	0xbd115200	-0.035478592
187	0xbb5c489f	-0.0033612621
188	0xbce25cfd	-0.02763223
189	0x3cd5833e	0.026063558
190	0x3b7c767c	0.003852277
191	0x3c0e5776	0.0086878445
192	0xbb9b088b	-0.004731243
193	0xbc917e25	-0.017760346
194	0xbcbb6c66	-0.022878837
195	0xbcf02627	-0.029315067
196	0xbc454ba1	-0.012041957
197	0x3cd2b043	0.025718814
198	0x3cf7a568	0.030230239
199	0xbc32618c	-0.010887515
200	0x3ce24302	0.027619842
201	0x3c043834	0.0080700405
202	0x3c4f8b90	0.012667552
203	0x3c9769fe	0.018483158
204	0xbbc90f29	-0.0061358404
205	0x3b4d414f	0.0031319445
206	0x3ce10acd	0.02747097
207	0x3cc78a30	0.024357885
208	0xbd1746a3	-0.0369326
209	0xb9f1eab3	-0.00046141967
210	0xbc18f6a0	-0.009336144
211	0x3b801be6	0.0039095758
212	0xbc7bc5dd	-0.0153669985
213	0xbbc35be0	-0.00596188
214	0xbcb136f8	-0.021632656
215	0x3c8fb989	0.017544525
216	0xbceef43e	-0.029169198
217	0xbd0f9104	-0.035050407
218	0x3c89883d	0.016788596
219	0xbcd39bce	-0.02583113
220	0x3d2dbc9b	0.042416196
221	0x3c1a82ca	0.009430597
222	0x3cd28a2e	0.025700655
223	0x3d0528f2	0.03250975
224	0x3caa5a60	0.020795047
225	0x3cfbe828	0.03075035
226	0xbd0fa53d	-0.035069693
227	0xbc73c109	-0.014877566
228	0xbc8e5e34	-0.017378904
229	0x3d152d6a	0.036420263
230	0x3cb82ef6	0.02248333
231	0xbd02afcd	-0.031905938
232	0xbbd2900c	-0.006425863
233	0xbb962ce4	-0.004582988
234	0xbcec805b	-0.028869798
235	0x3c52620a	0.012840757
236	0xbc8b8457	-0.017030878
237	0xbbfa3835	-0.007636095
238	0xbd1a4215	-0.037660677
239	0xbc48733c	-0.012234505
240	0xbcc50931	-0.024052234
241	0xbc123e2c	-0.008925956
242	0xbc3853db	-0.011250461
243	0x3c016a93	0.007898944
244	0xbd03412b	-0.03204457
245	0xbb6877a3	-0.00354717
246	0x3c2c0e84	0.010501508
247	0xbbe8519f	-0.007089808
248	0x3d241446	0.040058397
249	0x3cc170f9	0.02361344
250	0x3c12c13b	0.008957203
251	0x3bf8a8b2	0.0075884694
252	0xbcb146da	-0.02164023
253	0x3b0b5713	0.0021261617
254	0xbc465a81	-0.012106539
255	0xbd2319ad	-0.03981941

l2.weight f4 [10, 128]
0	0x3c4700a7	0.012146152
1	0xbd033d07	-0.032040622
2	0x3d09f688	0.033682376
3	0x3d5a586d	0.053306986
4	0x3c0b096b	0.008486132
5	0xbd9f36bf	-0.07774114
6	0xbb657677	-0.0035013238
7	0xbd0ba3c1	-0.034091715
8	0xbd86070d	-0.065443136
9	0x3d427ec3	0.04748417
10	0x3b97e1ef	0.0046350877
11	0xbd10e437	-0.035373893
12	0x3c2cce27	0.010547197
13	0xbd835b1c	-0.06413862
14	0x3d3b33e0	0.04570377
15	0xbb423c71	-0.0029638077
16	0xbc346142	-0.011009516
17	0xbc9fd7fa	-0.019512165
18	0xbc90908e	-0.017647054
19	0xbda3efaf	-0.080047004
20	0x3d45132f	0.048113998
21	0xbb53a6fc	-0.0032295575
22	0xbcbd4ad2	-0.023106966
23	0x3ca6ffa2	0.020385567
24	0xbd128d61	-0.03577936
25	0x3c47cb2b	0.012194435
26	0x3d169623	0.036764275
27	0xb99c9729	-0.00029867262
28	0x3d2bff47	0.0419915
29	0xbce68111	-0.028137716
30	0x3d0a7902	0.03380681
31	0xbd0184c5	-0.03162076
32	0xbd2f8233	-0.042848777
33	0xbd8660c6	-0.06561427
34	0x3c6d2a9a	0.014475489
35	0xbcef3373	-0.029199338
36	0xbd3f6131	-0.04672355
37	0x3d9bed41	0.07613612
38	0xbbc8fef7	-0.00613391
39	0xbd0d2986	-0.034463428
40	0x3c8964ca	0.016771693
41	0xbc694952	-0.014238672
42	0x3b13d6dc	0.0022558486
43	0xbd16b1a4	-0.036790505
44	0xbd43eddf	-0.047834273
45	0xbce57979	-0.028012024
46	0x3da92751	0.08259452
47	0xbdb4986c	-0.08818135
48	0x3cd20a38	0.025639638
49	0x3d12c1e9	0.03582946
50	0xbd4f3f3a	-0.050597407
51	0x3d75244d	0.059849072
52	0xbd30bb96	-0.043147646
53	0xbdb1f631	-0.086895354
54	0x3c768aa3	0.015047702
55	0xbcf41728	-0.029796198
56	0x3c97836a	0.01849528
57	0x3d33f782	0.043937214
58	0x3cb668eb	0.022266826
59	0xbd029c20	-0.031887174
60	0xbc23b567	-0.00999198
61	0xbc5b3ee6	-0.013381695
62	0x3a94bf92	0.0011348596
63	0x3d8ff23e	0.07028626
64	0xbc114460	-0.0088663995
65	0x3d520ff9	0.051284764
66	0x3d7ff66e	0.062490873
67	0x3d9abc4b	0.07555445
68	0x3cda0fdc	0.02661889
69	0xbd46227c	-0.04837273
70	0xbc803e5e	-0.015654739
71	0xbd0b221d	-0.03396808
72	0xbdb11b5a	-0.08647795
73	0xbc00240d	-0.007821095
74	0x3ca5c738	0.020236596
75	0x3d0fa8c1	0.035073046
76	0xbd5cb3a3	-0.053882252
77	0xbd50547d	-0.050861824
78	0x3d605d60	0.05477655
79	0x3d67dd5e	0.056607597
80	0x3d8483b7	0.06470435
81	0xbd19e52c	-0.03757207
82	0xbd973371	-0.073828585
83	0x3c042dd0	0.008067563
84	0x3d1705ea	0.036870874
85	0x3d69b412	0.057056494
86	0xbd6271f7	-0.055284467
87	0xbd44f879	-0.048088524
88	0x3d8ac6dd	0.067762114
89	0xbb4ad286	-0.0030948236
90	0xbd691d10	-0.05691248
91	0x3d87e8d5	0.06636206
92	0xbc50d2f5	-0.012745609
93	0x3d39c6a9	0.045355473
94	0xbb1520e2	-0.0022755195
95	0x3d113a22	0.03545583
96	0x3d8c0b54	0.06838098
97	0x3b358fe9	0.0027704185
98	0xbd49216a	-0.04910413
99	0x3d50a9c9	0.05094317
100	0xbb4dd935	-0.0031409983
101	0xbd166489	-0.03671697
102	0x3d99da98	0.075123966
103	0xbce250c3	-0.0276264
104	0x3cdaf38c	0.02672746
105	0x3ca49212	0.020089183
106	0xbc7f8f74	-0.015598167
107	0x3dab533f	0.08365487
108	0x3d0587b6	0.032600127
109	0xbda6c843	-0.08143666
110	0xbd0cc3c2	-0.034366377
111	0xbd9a9484	-0.07547858
112	0xbda4ed86	-0.080531165
113	0x3d8b3c8a	0.06798656
114	0x3cd835c9	0.026392834
115	0xbcf474d5	-0.029840866
116	0xbd84d9a7	-0.064868264
117	0x3c62a022	0.013832124
118	0xbd431b20	-0.04763329
119	0xbd5b0652	-0.053472824
120	0xbd0fb086	-0.035080455
121	0xbc8eb732	-0.017421339
122	0x3d95b6b4	0.073102385
123	0x3d8a3eb2	0.067502394
124	0xbd8d0a2d	-0.068867065
125	0x3c5af387	0.0133637255
126	0x3d067cb6	0.032833777
127	0x3cea0ef6	0.028571587
128	0xbd458b10	-0.048228323
129	0x3d2bb968	0.041924864
130	0xbd9a32cd	-0.07529221
131	0x3b3eaa08	0.0029093046
132	0xbc774e1d	-0.015094307
133	0x3cdfb2ac	0.027306877
134	0x3d9f23e3	0.07770517
135	0xbd1df0d2	-0.038559742
136	0xbce1803d	-0.02752697
137	0x3d738984	0.059457317
138	0x3c804de8	0.015662149
139	0x3b03737f	0.0020057855
140	0x3d4e9002	0.050430305
141	0xbd3a3c2a	-0.045467533
142	0xbc8df1e5	-0.017327258
143	0x3cbb09bb	0.022831788
144	0x3d908b8a	0.07057865
145	0xbb182592	-0.0023215753
146	0x3ce6d660	0.028178394
147	0x3d701be2	0.05862034
148	0x3d8a0df2	0.06740941
149	0xbcc002f1	-0.023438903
150	0xbcd7a196	-0.026322167
151	0x3a964cdb	0.0011466997
152	0x3d465014	0.048416212
153	0xbd09a77d	-0.033606995
154	0x3b14cd1a	0.0022705258
155	0x39b89e1a	0.0003521301
156	0x3d7e6a43	0.062113058
157	0xbd7a5c6e	-0.061123304
158	0x3c79b78b	0.015241514
159	0xbc8ce10b	-0.017197153
160	0x3d353edd	0.044249404
161	0x3d80a0d6	0.06280677
162	0x3d51e43e	0.05124306
163	0x3d2e4b49	0.042552266
164	0x3d20e208	0.03927806
165	0xbdbfa258	-0.093571365
166	0x3da5b93f	0.080919735
167	0xbcdcd35e	-0.026956256
168	0x3d3be779	0.045875046
169	0x3d5a7c30	0.05334109
170	0x3b5feeae	0.0034169364
171	0xbc94e13a	-0.018173803
172	0xbca9a62a	-0.020709116
173	0x3b3b9bac	0.0028626723
174	0x3d3989e4	0.04529752
175	0xbd15c4fe	-0.03656482
176	0x3d48ad19	0.048993204
177	0xbd9e7da3	-0.07738807
178	0x3d3274a9	0.043568287
179	0xbce1fdd7	-0.02758686
180	0xbd7816ac	-0.060568497
181	0x3d082726	0.03324046
182	0xbd84a7c0	-0.06477308
183	0x3d1b725c	0.03795086
184	0x3d0eca36	0.034860812
185	0xbd92d729	-0.07169945
186	0x3c1cd20b	0.0095715625
187	0x3d7d6bd6	0.06187042
188	0x3c38a185	0.011268978
189	0xbcb85c95	-0.022505084
190	0xb941d421	-0.00018484938
191	0x3d429da0	0.047513604
192	0xbd2ade37	-0.041715827
193	0xbcae65ed	-0.021288836
194	0x3c15ce98	0.009143494
195	0xbd3ad714	-0.04561527
196	0x3c81c559	0.015841173
197	0x3d83abc0	0.06429243
198	0x3d7a5d5b	0.061124187
199	0xbb95c2d1	-0.004570343
200	0xbcb7c106	-0.022430908
201	0xbb13b613	-0.0022538945
202	0x3d24b2d2	0.0402096
203	0x3d66fda2	0.056394227
204	0xbcc78fed	-0.024360621
205	0x3d4981ed	0.049196173
206	0x3d799a1f	0.060937997
207	0xbd30ecca	-0.04319457
208	0xbd90f0d5	-0.07077185
209	0x3d22ece7	0.03977671
210	0xbd871828	-0.06596404
211	0xbd5194fa	-0.051167466
212	0xbc28a1e5	-0.010292505
213	0x3d11083b	0.03540824
214	0xbdbc7071	-0.09201134
215	0x3cac58e1	0.021038475
216	0xbd911bc5	-0.07085375
217	0x3c048915	0.0080893235
218	0xbba6bd3f	-0.005088478
219	0xbc57b133	-0.013164806
220	0xbcb0c955	-0.021580378
221	0x3c7cf16e	0.015438421
222	0x3cc4033b	0.023927322
223	0xbc73766e	-0.014859779
224	0x3d0a1971	0.03371567
225	0xbd9a6e98	-0.07540625
226	0xbd91cd59	-0.07119245
227	0xbd84070e	-0.06446658
228	0x3d3b5b01	0.045741085
229	0x3d6b8a9a	0.057505228
230	0xbb806f9f	-0.0039195563
231	0xbd8eeef1	-0.06979168
232	0x3ced643e	0.028978463
233	0xbdac5ca1	-0.08416105
234	0x3bb2d0d3	0.0054570227
235	0x3d8a8b27	0.067648225
236	0x3dcec4f3	0.10096159
237	0x3dd0f13d	0.102022626
238	0xbdb2694e	-0.087114915
239	0xbd8547ce	-0.06507836
240	0xbaa90964	-0.0012896475
241	0xbbee6197	-0.007274817
242	0xbd4330e1	-0.047654036
243	0x3c5ef2ff	0.0136077395
244	0xbd301df8	-0.04299733
245	0x3d845829	0.06462128
246	0xbccb72fa	-0.024835099
247	0xbc9c351f	-0.019068299
248	0xbca6d555	-0.020365397
249	0xbb50ddd0	-0.0031870492
250	0xbd8d1532	-0.06888808
251	0xbd32453d	-0.043523062
252	0xbd15973b	-0.036521178
253	0xbb24b929	-0.0025134778
254	0x3d0fc722	0.035102017
255	0xbcf72603	-0.030169493
