numpyInferenceEngine/LeNet_MNIST/LeNet_Small_weights.pkl (torch, 179822 bytes, 7 tensors)

conv1.weight f4 [6, 1, 5, 5]
000000 d0 7e 65 3d d0 2d 46 3d 1c 49 6e 3d fe 01 84 bd
       0.05602914 0.048383534 0.05817519 -0.064456925
000010 f0 c2 25 3e dc f0 08 3e 2c c6 8b 3b 04 d4 51 bd
       0.16187644 0.1337313 0.0042655673 -0.051227584
000020 f9 b1 03 3e 94 e0 85 ba cf b8 a1 bd 83 e9 bd 3d
       0.1286086 -0.0010214024 -0.078965776 0.092730545
000030 84 dc 9c bd 4a 62 f2 bd aa 34 9e 3c ef 61 29 3e
       -0.076592475 -0.118351534 0.019312222 0.16541265
000040 a0 e0 6a bd 9d 62 7e bd be 5e 2a be 87 63 01 be
       -0.057343125 -0.062105764 -0.16637704 -0.12635623
000050 41 42 f3 bd c4 3c 47 3e 81 50 39 bd 89 a8 42 bd
       -0.11877871 0.19456774 -0.04524279 -0.04752401
000060 d7 14 21 be fe b9 31 bc 7f c1 ad 3c f8 00 39 be
       -0.15730606 -0.010847567 0.02121043 -0.18066776
000070 6f cc b0 3c 0e 02 29 3d cc 20 8c 3d fb 39 42 bd
       0.021581857 0.041261725 0.06842193 -0.047418576
000080 c7 c4 3c be 77 19 52 be 58 30 0b 3e 5c 57 41 be
       -0.1843444 -0.20517527 0.1359266 -0.18880981
000090 8f f9 fc bd 8e 74 00 3e 47 e4 70 bc a5 36 4c 3e
       -0.12352287 0.12544462 -0.014702863 0.1994272
0000a0 e4 b5 28 3e 34 d4 85 3d 8c ea 3c 3e 18 8e 0f 3e
       0.16475636 0.06534615 0.18448848 0.14019048
0000b0 0c f5 ed bb 6e 01 0d be 04 bd 90 3d ab a3 57 3e
       -0.007261878 -0.13770077 0.07067302 0.21058528
0000c0 41 22 7f 3d ca 67 2b be 77 33 33 3e 3c eb b2 3d
       0.062288526 -0.16738811 0.17500101 0.08736274
0000d0 3a a9 37 be 65 43 2d 3e 9a ca 87 3d 75 6b 3f 3e
       -0.17935649 0.1692024 0.0663044 0.18693335
0000e0 35 1f 1c 3e ba 83 d5 bd a5 7e 70 bd e6 55 4c be
       0.1524628 -0.104255155 -0.058714528 -0.19954643
0000f0 ed a2 6e bc c3 0a c3 3d 63 76 a8 3d 3d 2b da 3d
       -0.014565212 0.09523537 0.082257055 0.10652778
000100 da 6a 32 be e4 34 20 bd 53 72 10 be a7 9e 81 bd
       -0.17423573 -0.03911294 -0.14106111 -0.06329089
000110 cc 9e bb 3a 5e fa fb 3d cf 47 10 3e 92 85 18 3e
       0.0014314293 0.12303613 0.14089893 0.14894703
000120 ce 68 e1 3d 00 64 e9 3d 79 84 0f 3e c1 8d 02 bd
       0.11006318 0.113960266 0.14015378 -0.03187347
000130 fe 31 69 bd 7d 69 f4 bd f6 b5 3f 3a 5f 3a b7 3d
       -0.056932442 -0.11934183 0.0007313186 0.0894668
000140 01 ce c3 bd c2 9f 94 be 48 d7 14 3d ca c1 6c 3d
       -0.095607765 -0.29028136 0.03633812 0.057802
000150 12 14 83 3d 43 54 4d be 8b 55 20 3d 09 ce c0 bd
       0.064003125 -0.20051675 0.03914408 -0.09414298
000160 10 b5 3f 3e ab 52 31 3e 1d 11 11 bd b5 30 66 be
       0.18721414 0.17316692 -0.03541671 -0.22479518
000170 a6 ff d1 3c fb 52 86 3c 2d 01 f8 3d 4b 8e c3 bd
       0.025634598 0.01639699 0.12109599 -0.095486246
000180 29 cf 0b 3e 29 c5 a0 3d 2c 60 79 bd 16 f8 e4 bd
       0.13653244 0.07850105 -0.060882732 -0.11180131
000190 f9 ca b8 3d b8 ce a9 bc 42 cc 09 bc 24 75 bd 3c
       0.09023089 -0.020728454 -0.008410515 0.023127146
0001a0 31 c7 87 bd fb 36 57 3e 0a 7a 10 3e 45 30 43 3d
       -0.066297896 0.21017067 0.14109054 0.047653455
0001b0 a6 a3 c3 bc 3a ae 16 bc 5c 1f c2 bd 29 d8 d5 3d
       -0.023881745 -0.009196812 -0.094786376 0.1044162
0001c0 43 5b 47 3c a2 27 de 3d 06 bc 58 be b6 df 4e 3e
       0.012167755 0.10847403 -0.21165475 0.20202526
0001d0 ea 53 c9 bd f8 2e 73 be 21 85 2f be e1 89 db bd
       -0.098304585 -0.23748386 -0.17140628 -0.10719658
0001e0 e6 38 19 be ab a9 98 3d 0d aa 35 be 2d 80 dd bd
       -0.14963111 0.074542366 -0.1774065 -0.10815463
0001f0 13 e1 1d be 26 19 67 3d e6 f2 58 3d a3 ef 5a 3e
       -0.1541789 0.056420468 0.05296602 0.21380477
000200 20 b6 6c 3e 05 91 ad 3d c2 53 22 3e 86 53 14 3d
       0.2311635 0.08474926 0.15852264 0.036212467
000210 81 b0 13 3e e9 4a 51 bd 78 2e ab 3c cf 23 0f be
       0.144228 -0.05109683 0.020896181 -0.13978504
000220 ee 13 e2 bd 62 6e 68 be 87 a6 37 be c9 2a 12 be
       -0.110389575 -0.22698358 -0.17934619 -0.14274134
000230 8d 1c 29 be 50 32 8e be ac 10 80 bb f3 1d 02 be
       -0.16514798 -0.2777276 -0.0039082374 -0.12706737
000240 29 62 dc bd 27 c9 b1 3d 83 91 5b 3e bf d7 27 be
       -0.1076091 0.08680945 0.21442227 -0.16390894
000250 c8 d9 29 3e 4e ee d3 3d
       0.16586983 0.103481874

conv2.weight f4 [16, 6, 5, 5]
000000 6d 08 a9 bd 71 25 87 bd 2b cd 9b 3c 6c 02 a3 3d
       -0.0825356 -0.06598938 0.01901873 0.07959446
000010 fd c2 9e 3d 0a 9f 1c bd a7 0a 39 3d 59 e7 88 bb
       0.07752035 -0.03823761 0.045176174 -0.0041779694
000020 cb ae 25 bd 72 aa 23 3c b1 e5 34 bd 6b b8 81 3d
       -0.0404499 0.009989368 -0.044164363 0.06334003
000030 57 0c 71 3d 85 8e 45 3d a6 02 e5 bd 25 67 0c bd
       0.05884966 0.04823162 -0.11182146 -0.034278054
000040 4f e1 89 bd 56 91 c0 bd ec 29 e2 bd 65 c3 c5 3c
       -0.06732427 -0.09402721 -0.11043152 0.024141023
000050 83 3c 17 bd 9f 34 80 3b 79 91 38 3d d5 ea 45 bd
       -0.036922943 0.003912523 0.04506061 -0.048319656
000060 4a 77 b6 bd 82 cd dd 3c 53 71 db 3c b5 51 52 3d
       -0.08909471 0.027075533 0.026787436 0.051347453
000070 41 c3 58 3d ce 93 d4 bd 9b 7d 39 bb a7 a2 b0 3d
       0.052920584 -0.10379754 -0.0028303626 0.086247735
000080 cc 98 d3 bb 68 b9 d2 bd 37 6c c3 bd 94 ed 8f 3d
       -0.006457424 -0.1028927 -0.09542125 0.07027736
000090 aa c6 93 bd 39 f8 91 bd 10 36 08 bd ed 37 93 3d
       -0.072156265 -0.07127423 -0.033254683 0.07188401
0000a0 74 ab 95 bd 26 68 45 3d 89 1e 1a bd 4b 1a e6 bc
       -0.07308093 0.048195027 -0.037626777 -0.02808871
0000b0 be 4a 29 3d 74 2f 48 3c 4b cd 1c bd 0a 12 be bc
       0.041331045 0.012218345 -0.03828172 -0.023201961
0000c0 65 0e 49 bd e8 98 8f 3d d9 7e 80 bd 9b 23 19 bd
       -0.049085993 0.070115864 -0.06274194 -0.03738747
0000d0 63 af d3 bb 8e 48 af 3d 8d 8e a6 3c 52 4e 17 3d
       -0.0064601167 0.085587606 0.020331645 0.036939926
0000e0 74 1e 06 bd 34 a0 98 bc f2 30 9b 3c bc ae bd bb
       -0.032743886 -0.018631078 0.018944237 -0.005788652
0000f0 1b c6 09 3d d8 d2 87 3d 59 e1 5c bc 83 b0 04 bc
       0.033636194 0.06632012 -0.013481461 -0.008098724
000100 8b 31 e8 bc 70 f5 58 3d 6c 4e 73 3d f6 0f 15 bd
       -0.028343936 0.052968442 0.05940096 -0.036392175
000110 1e 88 1c bc f9 c4 e4 bc 07 5c 4b bc ca 6a be bd
       -0.009553937 -0.027925955 -0.012412078 -0.09297712
000120 e0 84 94 bd 00 d8 5b 3d 56 1a ab 3c d4 52 4c bd
       -0.072519064 0.05367279 0.020886581 -0.04988368
000130 ae 7e 34 3d d5 d8 04 3d a0 ec a4 3d 92 d4 44 bd
       0.044066124 0.03243335 0.08052945 -0.048054285
000140 39 ab e1 3d ab 7d 6d 3d aa 5d fd 3c 5d 7b ab 3c
       0.11018986 0.057981174 0.030928452 0.020932848
000150 62 89 89 3c fe 30 be bc a6 a2 50 3d 5d a9 c1 bc
       0.016789142 -0.02321672 0.050936364 -0.023640329
000160 15 82 ce bc 4b 96 24 3d 78 bb f7 bd 0b 13 b3 bd
       -0.025208512 0.040182393 -0.12096304 -0.087438665
000170 0b 51 e0 bb dc a3 77 3d ad 59 a3 3d c3 77 ab 3c
       -0.0068455986 0.060459003 0.07976089 0.02093113
000180 b8 20 a5 bd 7d 5b 6e 3d 96 ee 37 3d f7 b0 aa 3a
       -0.08062881 0.05819272 0.044905268 0.001302271
000190 78 bc bc bd fc 84 3d 3c 1c f9 ab bc 1d 84 8b 3c
       -0.09215635 0.0115673505 -0.020992808 0.01703077
0001a0 0b 2b a1 3d 9e 3e 57 3a 0d c4 44 bc 03 e2 54 bc
       0.07869538 0.000821093 -0.012009633 -0.0129933385
0001b0 4a e3 1b bb 86 b4 f8 3b ed c3 17 3d 1b 53 c9 3d
       -0.0023786598 0.0075898794 0.037052084 0.09830304
0001c0 b3 0b a3 3d db e1 9b 3d e1 6f f7 3b e0 6d 5f bd
       0.07961216 0.07611438 0.007551179 -0.054548144
0001d0 98 70 cd 3c 42 4e 98 bd b2 2a 01 be 52 83 bc 3b
       0.025078103 -0.074368015 -0.12613943 0.0057529593
0001e0 80 10 5d bc bf 43 04 be 04 93 14 be 01 52 12 be
       -0.013492703 -0.12916468 -0.14509207 -0.14289095
0001f0 0a e4 ff bd 35 23 2c 3e f0 55 53 3d 94 f3 31 bd
       -0.12494667 0.16810305 0.05159563 -0.043445185
000200 e2 b0 41 bc 0f d8 a3 bd 27 9a 87 3d 38 29 2c bd
       -0.011821957 -0.08000194 0.06621199 -0.042031497
000210 80 71 78 3b 79 19 bf 3c 9c 41 22 bd 7b e5 5e bc
       0.0037909448 0.023327576 -0.03961335 -0.013604517
000220 18 c4 05 3e 2a 27 99 3d c4 55 a4 bd 5b 6b 0e be
       0.13063085 0.07478173 -0.08024171 -0.1390814
000230 cf 6f 16 3e c1 7d d7 3d ab 89 85 bd fe e0 d3 bb
       0.14691089 0.105220325 -0.06520399 -0.00646603
000240 b0 71 d6 bd d6 3f 85 3a 13 ae 7a bd 1d e9 2c bd
       -0.10470903 0.0010166119 -0.061201166 -0.0422145
000250 37 85 7c bd ec b1 b7 bd 03 10 48 bd 27 dc b1 bd
       -0.06165048 -0.08969483 -0.048843395 -0.08684569
000260 47 4d ff 3b 53 61 ac 3c 66 da 87 3d 1c 1c a0 bc
       0.0077911946 0.021042502 0.06633453 -0.019544654
000270 fb cb 20 3d 32 dd 9c bd 95 aa 8b bd e9 ae 00 3d
       0.03925703 -0.07659377 -0.06819645 0.031416807
000280 36 47 82 3b f5 8a 80 bd fb 83 a6 bd c2 1d 64 bb
       0.003975774 -0.06276504 -0.08130642 -0.0034807776
000290 9b 2d 96 3d 21 0e e2 bc f3 02 3f bd 07 c0 a5 3d
       0.07332917 -0.027594628 -0.046633672 0.08093267
0002a0 75 9b b2 bc a3 69 58 bc 9e 79 82 bd 51 46 ff bc
       -0.021802643 -0.0132087795 -0.06370853 -0.03116146
0002b0 8e 58 9e 3c 53 ad 61 3d e3 75 8f bd bc 61 8c bd
       0.019329336 0.055096935 -0.07004907 -0.06854579
0002c0 ec 41 5e 3d 53 eb 8f bc ea 42 3e bd f7 c9 20 bc
       0.054262087 -0.017568266 -0.046450533 -0.009813777
0002d0 9b 92 86 3d 79 01 46 bd 5d fa 36 bd 75 d8 81 3d
       0.065709315 -0.04834125 -0.04467236 0.06340114
0002e0 da 95 2f 3d e7 c8 60 bd 4d d3 81 3d fc 3e 0e bc
       0.04286752 -0.054879095 0.063391306 -0.008682009
0002f0 86 ac ce 3b 27 e5 a9 bc 15 52 4c bb fb 98 59 3d
       0.0063071875 -0.020739151 -0.0031176854 0.05312441
000300 6d c7 b4 3c db e0 05 bd c3 86 8c bd e5 89 c2 bc
       0.02206775 -0.032685142 -0.06861641 -0.023747394
000310 7a ce 9a 3c 9b 8e ba bb 2d cf 28 3d 20 29 ae 3c
       0.018897284 -0.0056932694 0.041213203 0.021259844
000320 29 5c fe bb 75 40 01 bd 63 ad 92 3d b3 29 91 3d
       -0.007762451 -0.03155561 0.07161977 0.070880316
000330 4d 1c 5b bd 4d a1 c7 3c 62 0b be ba 23 97 2f bd
       -0.053493787 0.024368906 -0.0014499242 -0.042868745
000340 33 40 1d 3d 0b e9 2d 3b 2e 36 dd 3b 0a a2 63 3c
       0.038391303 0.002653661 0.0067508435 0.013893614
000350 50 27 b1 3c b7 c5 a5 3d bc 52 68 bb cb ae 28 bd
       0.021625191 0.08094352 -0.0035449704 -0.04118232
000360 ed 26 a9 bd c0 b1 c5 ba 9c 82 31 3d ba 6b 81 3d
       -0.08259378 -0.0015082881 0.04333745 0.06319375
000370 e7 4e 90 3c ce 62 d3 bc 1d e4 f2 bc a9 ed dd 3b
       0.017615749 -0.02580395 -0.029649789 0.006772716
000380 12 74 c5 bc c4 c9 83 ba 46 ce 5b 3d da 65 cc 3c
       -0.024103198 -0.0010054638 0.053663515 0.02495091
000390 e2 ec 4f 3d 09 40 1a bd 48 6d 1e bc f1 c9 5d 3d
       0.05076302 -0.037658725 -0.009669609 0.054147664
0003a0 73 32 d7 bb 35 72 d2 bc d7 9e 20 bd 21 9a 93 bd
       -0.0065672933 -0.025689224 -0.03921398 -0.07207132
0003b0 e4 ba 1c bc ac ae 39 3d 3d ab 95 3d 62 75 79 bd
       -0.009566043 0.045332596 0.07308052 -0.06090296
0003c0 57 7d 79 bd a3 0c b4 3d 8d 58 1c bd 59 af ec 3c
       -0.06091055 0.08791473 -0.038170386 0.028892206
0003d0 5a 36 81 bd 60 59 02 3a 14 72 99 3d 0c af e8 bc
       -0.06309195 0.00049724244 0.07492462 -0.028403781
0003e0 e8 a1 9c bd fe 64 0a bd ac 02 55 3b 5a 6a 17 3d
       -0.07648069 -0.03378772 0.0032502813 0.03696666
0003f0 c3 9a c6 bc 70 ed 26 3d 1d 59 5b bd 91 bb 8c bd
       -0.024243718 0.04075378 -0.053551782 -0.06871713

conv3.weight f4 [120, 16, 4, 4]
000000 ff 63 09 3d a3 d9 e9 3d 8b 8e 70 bc 33 d0 a2 bd
       0.03354263 0.11418464 -0.014682422 -0.07949867
000010 bf ea 1a bd 13 25 dc bc 8c bf fb 3b 07 bc 84 bd
       -0.037821528 -0.026873147 0.0076827463 -0.06481176
000020 ff a5 3e bd 9b 25 f0 bc ba 5e f3 3c 74 3d 96 bd
       -0.046545025 -0.029314807 0.029708255 -0.0733594
000030 ab 07 31 3d 70 7b 1e 3d 83 aa c8 3b 0e 6b 1c 3d
       0.043220203 0.038691938 0.006123842 0.038188033
000040 90 f5 fa bc 96 52 2e 3d 45 a1 aa ba 1d dc 2e bd
       -0.030634671 0.04255923 -0.0013018033 -0.042690385
000050 a5 d9 9f 3c 3a 46 66 bd 1d 14 53 bd a0 26 73 3c
       0.01951296 -0.056219317 -0.051532853 0.014840752
000060 74 16 e1 ba f8 1e 3d bd 30 0a 85 3d 54 75 8b 3d
       -0.0017172829 -0.046172112 0.06496084 0.06809488
000070 59 77 f7 ba 90 02 4b bd fb b2 2b 3d d4 81 3d 3d
       -0.0018880173 -0.04956299 0.041918736 0.046266392
000080 9a 6f 4f 3d fa 6d 26 3d 31 b9 a0 bd e8 8b 73 bd
       0.05064354 0.040632226 -0.078478225 -0.059459597
000090 53 29 90 3d af dd 72 3c 16 64 aa bd 00 8c f0 3b
       0.07039132 0.014823361 -0.08319871 0.007340908
0000a0 99 50 bc 3d b5 5b 96 3d 95 26 0e 3b 7d 4c 35 3d
       0.0919506 0.073417105 0.0021690477 0.044262398
0000b0 44 2f 48 3d 54 7c 8a 3d 05 5c 9b 3c 58 31 65 bd
       0.0488732 0.06761995 0.018964777 -0.05595526
0000c0 5c e4 12 bd b6 6e 0f bc f3 18 97 bd b4 1f ec bc
       -0.03586231 -0.008754423 -0.073778056 -0.028823711
0000d0 c5 b8 76 3d 92 1a f9 38 73 03 63 bd 7e 1d df 3c
       0.060234804 0.00011878194 -0.05542321 0.027235743
0000e0 56 21 88 3d 4f ca 08 bd 4b 76 58 3d 17 5c 58 bd
       0.06646983 -0.03339606 0.052847188 -0.0528222
0000f0 b5 3d df bc 55 06 30 bd 5d 1e b3 bb 74 15 6c 3c
       -0.027251104 -0.04297479 -0.005466266 0.014409412
000100 63 e9 79 3d 3d bc a4 3c 8f c4 4e bd 63 24 23 3b
       0.06101359 0.02010929 -0.05048042 0.0024893514
000110 cd b8 9a bc 58 58 80 bc 2c c1 a0 bc 19 1c 02 bd
       -0.018886948 -0.015667126 -0.019623362 -0.031765077
000120 c4 3d 2f 3d 8b 12 4d 3d 49 31 57 3b 70 44 0e 3d
       0.042783514 0.050066512 0.0032835773 0.034733236
000130 c2 f7 44 bd 48 b2 41 bd 9d b4 94 3d bb 82 62 3d
       -0.048087843 -0.047289163 0.07261012 0.055300456
000140 da de 81 3d 5b f4 16 3c 50 86 63 bd f2 cc 93 3d
       0.06341334 0.009213532 -0.055548012 0.072168246
000150 37 99 9c bc 36 84 16 3c e6 cc 92 bc d5 81 18 bd
       -0.019116027 0.009186795 -0.017919969 -0.037233192
000160 82 7d 10 3d d4 29 c0 3c 0c ee 2a 3d 5a 31 12 bc
       0.035275944 0.023457445 0.041730925 -0.008922899
000170 2b ae 6e bd 67 24 0d 3d 45 77 c4 3b 89 b6 38 bb
       -0.05827157 0.034458544 0.0059956633 -0.0028184971
000180 fc a5 96 3c 94 23 1d bd 38 ff 34 3c a2 5b c9 bd
       0.018389694 -0.038364008 0.011047177 -0.09831931
000190 fd 18 7a bd b6 41 2d bd e4 e8 97 3c c0 90 ca bc
       -0.061058987 -0.042298995 0.018543668 -0.024727225
0001a0 5a 95 08 3d 18 39 36 3d a9 05 45 3d d5 2a 6e 3d
       0.033345558 0.044488043 0.0481011 0.058146317
0001b0 a4 f6 4f bd 26 7f af 3c e1 46 49 bd f0 e9 48 3d
       -0.050772324 0.021422934 -0.04913986 0.049051225
0001c0 50 82 35 bc 07 c2 3b 3c f8 e0 d8 3c d4 df 12 3c
       -0.011078432 0.011459834 0.026474461 0.008964498
0001d0 f2 03 a2 bd 06 5e 59 bd ae 3d 9e bd eb a5 a9 bc
       -0.07910909 -0.053068183 -0.07726608 -0.020708999
0001e0 e4 14 db bc d7 01 14 3d 1a 54 1b 3d d3 74 64 bd
       -0.02674336 0.036134567 0.037922002 -0.055775475
0001f0 1e d8 10 ba 52 7f 8f 3d e3 5c 46 bc 30 6c 0a bb
       -0.0005525368 0.07006706 -0.012107107 -0.0021121614
000200 fc 44 37 3b f0 98 05 bc 1a 97 c4 3c 99 31 82 3a
       0.0027964702 -0.008154139 0.023997832 0.0009932994
000210 0c 75 2f 3d 21 ec 09 bd 98 e4 59 bd 31 b0 02 bd
       0.042836234 -0.033672456 -0.05319652 -0.03190631
000220 cf b4 80 3b 4d 82 74 bc cf 97 3f 3c e3 fc aa bd
       0.003927804 -0.014923644 0.011693909 -0.083490156
000230 00 01 ce 3c 5f 26 d6 bc 55 11 e0 3c 96 20 04 3d
       0.025146961 -0.026141344 0.027352015 0.03225764
000240 30 4d 72 3b 04 3a 16 bc 35 76 87 3c b1 ba 58 bd
       0.0036972277 -0.009169105 0.016535858 -0.052912418
000250 df 51 95 3d eb 96 49 3d 18 69 2a bd 93 46 50 3d
       0.07291006 0.049216192 -0.04160413 0.050848555
000260 54 9b b1 bc 79 49 1b 3c 9a 62 97 bc 0b bc cb 3c
       -0.021680512 0.009477966 -0.018479634 0.02486994
000270 8f 7e 80 bd 23 63 7f bd d6 15 5e 3d 65 01 f7 bc
       -0.06274139 -0.062350404 0.054220043 -0.030152032
000280 7b ff 47 bd 39 47 ce bb 18 1c be 3b 45 ed f4 3c
       -0.04882763 -0.0062951115 0.005801689 0.029898295
000290 2c 97 ae 3d fb df 6a 3d ea 6f 7d bd 6f f7 9d 3d
       0.085249275 0.05734251 -0.061874308 0.0771321
0002a0 7f 6a 5b 3d 06 e1 85 3c 56 01 4b bd d2 bd a9 bc
       0.05356836 0.016342651 -0.04956182 -0.020720396
0002b0 44 44 34 3d d6 d6 c0 3c 65 20 18 bd 13 cc 13 bd
       0.044010416 0.023539942 -0.03714027 -0.036083292
0002c0 12 6e a8 3c ce 66 ee bb 2e 50 bf bd 3c 13 b4 3c
       0.020560298 -0.007275439 -0.09341465 0.021981828
0002d0 05 12 76 3b 49 ea 89 bc f8 90 37 3c 29 71 ff 3b
       0.0037547362 -0.016835349 0.011203997 0.007795472
0002e0 d0 bd 86 3d 45 71 09 3b 23 6b e1 3c cd e6 04 bb
       0.065791726 0.0020972055 0.027516907 -0.002027917
0002f0 d3 2f bc bc 43 a7 6f bd 29 88 15 3d 8c 33 99 bc
       -0.022972023 -0.058509123 0.036506806 -0.018701337
000300 a0 13 4a bd fe 7b 1b bd ba c2 a5 3c 9e 8c 20 3c
       -0.049335122 -0.037960045 0.020234454 0.009799151
000310 65 8c 0d bb 36 4c a2 ba 89 9a 09 3c 04 e9 9b bc
       -0.0021598574 -0.0012382332 0.00839866 -0.019032009
000320 15 3a 09 bb 34 ee f1 bc 89 ac cd bb 38 a0 5b bc
       -0.002093916 -0.02953253 -0.0062766713 -0.013404898
000330 eb 26 3c 3c b3 cf 32 3d c7 59 92 3c a1 8f 5c bd
       0.011483888 0.04365511 0.017865075 -0.053847913
000340 37 3f 9a 3c 39 86 2e 3c ce fc c5 3b df 58 36 bc
       0.018828971 0.010652118 0.0060420996 -0.011129587
000350 c8 1d 43 bd 15 03 08 3d c4 91 20 3c 03 37 db bc
       -0.047635823 0.033206064 0.009800378 -0.02675963
000360 3c 91 ec 3c e1 8b e9 bb 64 ae fe 3c 73 34 31 3d
       0.028877847 -0.0071272706 0.031089015 0.04326291
000370 11 c9 34 bd 3a 7f 26 bc e9 af e8 3b e5 d3 6e bc
       -0.044137064 -0.010162169 0.0071010482 -0.014576887
000380 79 fc 22 3d bf 29 3b 3d 9d 14 11 3d d8 3d 50 3d
       0.039791558 0.04569411 0.03542005 0.05084023
000390 1d c8 33 3d 68 6d f6 bb c7 b2 01 bd 12 ac 0f 3d
       0.043892015 -0.0075203665 -0.031664636 0.03507621
0003a0 5a 7f 2a bd 8e 00 1c bd db 10 0d 3d c3 c4 59 bd
       -0.04162536 -0.038086466 0.034439903 -0.053166162
0003b0 6e 5e a0 bc 0d b7 19 bd ca ea 0b 3d 9d 9d 9f 3c
       -0.019576278 -0.037528086 0.03415946 0.019484336
0003c0 3a 77 2c bd 41 de c2 39 0f 65 dd 3b 32 34 d1 3b
       -0.04210589 0.00037168156 0.006756432 0.006384396
0003d0 70 3f 64 3d 48 26 c9 bd 19 c0 5c bd db 21 10 3d
       0.05572456 -0.09821755 -0.053894136 0.035188537
0003e0 c7 f8 28 bd 91 aa ba bb 0d 26 86 3c 21 29 92 bc
       -0.041252878 -0.0056966026 0.016375566 -0.017841877
0003f0 ea fa 2e bd c4 21 2c bc b1 0f 0f bd 26 b8 80 3d
       -0.04271976 -0.010506097 -0.034927074 0.062851235

linear1.weight f4 [84, 120]
000000 4c 9b a4 3d 04 8d 37 bd 95 da 13 3d 50 1c 8c 3d
       0.08037433 -0.044812217 0.036097128 0.06841338
000010 e8 f7 57 bd 78 c1 58 3d 75 5b a4 bd ba 75 4e bc
       -0.052726656 0.05291888 -0.080252565 -0.01260131
000020 6a 61 14 bd b6 5f 68 bd 10 79 9a 3d 51 3b d6 3d
       -0.036225714 -0.056731902 0.07542622 0.104605325
000030 32 c8 b2 bd 18 8b a5 bd c0 3c af 3d 7b 34 20 3d
       -0.087295905 -0.08083171 0.08556509 0.03911255
000040 92 06 38 3b 19 8b a3 3d d7 f1 12 be 6f 2a 7a bd
       0.0028080088 0.07985515 -0.14350067 -0.061075624
000050 80 fc 00 3b cf 6b bb 3d 2a 5d 0b bd 15 5a c7 3c
       0.0019681752 0.09151422 -0.034024395 0.024334947
000060 50 1b 7f 3d 1c b6 eb 3c 73 f5 9d bc f8 7c fd bc
       0.062281907 0.02877336 -0.019282078 -0.030943379
000070 98 6b e5 bb 40 7d 92 bd d0 e6 dc 3c 07 a5 1e bd
       -0.0070013516 -0.07152796 0.026965529 -0.0387316
000080 b3 24 89 3d e2 9f dc bc 36 d8 16 3d b4 cf d5 3d
       0.06696453 -0.026931707 0.03682729 0.10440007
000090 85 31 a4 bc df c0 c6 3d ee 60 93 bd c7 4a 20 bc
       -0.020043144 0.09704756 -0.07196222 -0.009783453
0000a0 fe d4 5d bd 53 69 54 3d 55 f0 73 3d 12 8a 5e 3d
       -0.054158203 0.051858258 0.05955537 0.054330893
0000b0 26 8f c5 bd 26 78 c3 bb ed f4 03 bd 40 c6 97 bd
       -0.09646444 -0.0059652505 -0.032216 -0.0741086
0000c0 37 8a 48 3d 56 d8 e4 bc 62 56 eb 3b 6b 4e 3d bd
       0.048959937 -0.027935188 0.0071819285 -0.046217363
0000d0 54 03 db 3c 73 5e 80 3c ac 5c 1b 3d f4 a2 5a bc
       0.026734985 0.015670037 0.037930176 -0.013344515
0000e0 8b ac 4e bd 52 62 46 3c 60 43 09 bd 25 b3 21 bd
       -0.05045752 0.012108402 -0.03351152 -0.039477486
0000f0 49 90 23 bd db c9 bd 3d 67 60 f1 3c 94 60 b9 bc
       -0.039932523 0.092670165 0.029464914 -0.02262906
000100 08 59 16 bd b7 cc 2a bb 1c 62 c0 3c a8 d0 99 3d
       -0.036706 -0.002606196 0.023484282 0.07510501
000110 b1 db 07 3d 9b 3c 80 bd 98 1f 5a bd fa 15 02 3e
       0.0331685 -0.062615596 -0.053252786 0.12703696
000120 1b a7 04 bc cb bb ae bd 06 69 c3 3d 0e 2a 81 3d
       -0.008096482 -0.085319124 0.09541516 0.063068494
000130 96 0e 3c 3d 13 26 98 3d 53 84 b2 bd b4 47 72 3d
       0.045912348 0.07429137 -0.08716645 0.059150413
000140 19 bf 10 bc 63 45 1b 3d 3b 75 c1 3d ea 22 05 bd
       -0.008834624 0.03790797 0.09446188 -0.032504
000150 af ce 8d bd 0d af b6 bd de f8 6b 3c b1 f6 53 3d
       -0.069241874 -0.08920107 0.014402596 0.051748935
000160 9c 9a f4 3b 24 f4 82 3d 3b 81 34 3d 28 dd 2d 3a
       0.00746472 0.063942224 0.044068556 0.0006632381
000170 55 0c f9 bc f3 4a da bb 4b 24 d7 bc 5b 5e 96 bc
       -0.030401388 -0.0066617667 -0.026262423 -0.018355539
000180 9a 1f 32 3d 4f f9 85 bd 11 69 58 bd 9f 00 27 3d
       0.04348717 -0.065416925 -0.052834574 0.040772077
000190 f3 78 07 bd 83 fc 57 bd 6b 43 cc 3c e0 07 d7 3c
       -0.03307433 -0.05273105 0.024934491 0.026248872
0001a0 2e 1b 5c bd db 76 b2 3d 4b 08 24 bd 67 1c 4d 3d
       -0.053736858 0.08714076 -0.04004697 0.050075915
0001b0 ab 5f 3e bc ab 7f bf bd 09 2c 41 bd 24 9c 6f 3d
       -0.011619489 -0.093505226 -0.047161136 0.058498517
0001c0 0e 76 ea 3d 2f bf 10 bd 59 19 34 3d 8b 0f 88 3d
       0.114482984 -0.035338577 0.043969486 0.066435896
0001d0 ec 4f 79 3d 5f f0 a3 3d 30 3d 28 bd e0 cd 7d bd
       0.060867235 0.080048315 -0.041073978 -0.061963916
0001e0 17 bc ad 3c da e0 ac bc ea 25 7a bc f9 b6 75 3d
       0.021207852 -0.021103311 -0.0152678285 0.05998895
0001f0 5f 15 9c bd 6c 24 81 bd e7 19 aa bd 52 69 8b 3b
       -0.07621264 -0.06305775 -0.08305722 0.0042544985
000200 a2 a3 9d bd 4f 63 64 3d bb 86 a3 3d 46 25 46 bd
       -0.07697226 0.05575877 0.07984682 -0.04837539
000210 f2 d7 24 3d 74 4b 81 bd 50 f7 b1 3d 45 95 6a 3c
       0.040245004 -0.0631322 0.08689749 0.014317815
000220 32 c3 e1 bc fb 7e 6f bb db e1 07 3d 8b 53 4b bc
       -0.027558897 -0.0036544192 0.033174377 -0.012410055
000230 cb 0a ea 3c 2c fd 35 3b 65 2f 15 bd 22 e1 b0 3d
       0.0285696 0.002776931 -0.036422152 0.08636691
000240 3e fe 4f 3d 54 c1 8b bd f6 f4 11 3c 23 7c 1e 3d
       0.050779574 -0.06823984 0.008908501 0.038692605
000250 cf 2c 01 bd 21 eb c0 3d 2e 5e 0a bd df da d5 bd
       -0.031536873 0.09419847 -0.033781223 -0.10442137
000260 cd 78 e4 3b 43 78 e8 3d d5 48 0a 3d 30 bc b6 bc
       0.0069724084 0.11351063 0.033760864 -0.022306532
000270 0a 88 ba bb 56 ce 99 3d 8a d8 66 bc 5c 29 11 3d
       -0.0056924867 0.075100586 -0.014089713 0.035439834
000280 c8 81 a5 bd 63 10 7a 3d ec 31 1a 3d 54 9a 94 3c
       -0.080813944 0.061050784 0.037645265 0.018139996
000290 22 12 23 3d ae c8 3a 3d a6 40 90 3d e5 ce 9b bd
       0.039812215 0.04560154 0.07043581 -0.076078214
0002a0 58 46 ba bd 3e e3 71 bd 50 bd bd bc 68 d2 78 bd
       -0.09095448 -0.059054606 -0.02316156 -0.060747534
0002b0 c7 0a 2b bd d9 08 f3 ba a8 eb c8 3c 04 41 0f bd
       -0.041758325 -0.0018542066 0.024526432 -0.034974113
0002c0 1a b5 06 bd 82 b8 42 3d 9f 68 89 3d b2 3b d4 bb
       -0.032887556 0.04753924 0.06709408 -0.006476843
0002d0 bd 14 19 3c b6 3e a3 bb 32 3e a9 bb c2 a5 62 3d
       0.009343323 -0.004981841 -0.005164885 0.05533386
0002e0 3b dc 92 bd 68 45 a0 3d 56 2c 9e 3d 1b e7 59 3c
       -0.07170912 0.07825738 0.077233 0.013299729
0002f0 bd b1 1b 3d a2 40 0e bd ae 5f 66 3d c5 44 96 bc
       0.0380113 -0.034729607 0.05624359 -0.018343339
000300 ee 95 85 bd b5 4c e3 3c e3 7f 8e bd fe 1d 63 bd
       -0.065227374 0.027746538 -0.06957986 -0.055448525
000310 27 26 aa 3d 82 55 00 3d 1d 8e 19 3d f4 9e b4 bd
       0.08308058 0.031331547 0.037489045 -0.088193804
000320 cf 4a f9 bc 4a 40 f2 3c 61 27 a8 3d 92 8d c0 bc
       -0.03043118 0.029571671 0.08210636 -0.023505006
000330 c1 d9 86 bd 06 25 16 3d a9 d5 ac ba 17 b9 86 3d
       -0.06584502 0.036656402 -0.0013186234 0.06578272
000340 dc 22 89 bd 4e be 49 bd 13 ac e3 bd f8 e3 ca 3d
       -0.06696102 -0.049253754 -0.11116805 0.09906763
000350 42 6b bc bd 04 50 03 bc e5 a3 92 bc 04 79 b9 bc
       -0.09200145 -0.008014683 -0.017900417 -0.022640713
000360 0a c3 2a 3d ea 36 c7 3c 25 b3 36 bb 15 f5 b7 bd
       0.04168991 0.024318177 -0.0027877775 -0.089822926
000370 c6 d5 7d 3d 88 a1 a8 ba 8b 83 a6 bd 70 25 2a 3d
       0.06197145 -0.0012865523 -0.081305586 0.04153961
000380 74 55 ab bd b9 d3 d5 bb 05 d2 bb 3d 6f da ad bd
       -0.08365908 -0.0065254834 0.091709174 -0.084889285
000390 d7 8a 9f 3c 3d e3 8a bd 35 f9 01 bd 95 14 8b 3c
       0.019475384 -0.067816235 -0.031731803 0.016977588
0003a0 cb e5 cc bc f4 dd 60 3d 91 1c 88 3d 9c a8 c9 bc
       -0.025011918 0.05489917 0.066460736 -0.024616532
0003b0 1a ad ae bd ba 4b 9f 3d 23 52 a2 3d 07 94 70 bd
       -0.0852911 0.077781156 0.079258226 -0.05873492
0003c0 52 ac c2 bd 88 99 d8 3d ea 71 fb bd 9f 3e 00 bc
       -0.09505524 0.10576159 -0.12277587 -0.00782743
0003d0 fd 2a 8c 3c 83 af 0e 3d aa 83 c0 3d 92 42 54 3d
       0.017110342 0.03483535 0.09400113 0.0518213
0003e0 a6 88 46 bd e8 fa b6 bb 8c f4 58 3d cb 62 bd 3d
       -0.04847016 -0.0055841096 0.052967593 0.09247359
0003f0 24 e3 7a bd bd 9a 55 bd ef c6 40 bd 2c 10 85 bd
       -0.061251774 -0.052149523 -0.047064718 -0.06497225

linear1.bias f4 [84]
000000 74 19 62 bc 38 d7 44 3d c6 f9 32 bd f9 64 13 bd
       -0.013800014 0.04805681 -0.043695234 -0.035984967
000010 0e b4 d3 bc 66 38 8a 3d 72 c9 52 3d 2f 91 a5 bc
       -0.025842693 0.067490384 0.051461644 -0.02021083
000020 7a 25 74 bd d9 ae ac bc 98 27 84 bd 1e a6 d8 bc
       -0.059606053 -0.021079468 -0.064528644 -0.026446398
000030 2b d6 14 bb 15 c1 f1 ba 38 35 0a 3d 9f 5b 9b bc
       -0.0022710662 -0.0018444384 0.03374216 -0.018964587
000040 90 b8 91 bd 6f 31 f9 3b 31 af 9b ba 7d 86 9f 3d
       -0.07115281 0.00760477 -0.0011877773 0.077893235
000050 98 1c e9 3c 04 d3 1a bd e2 32 b7 bd 10 1a 7e 3c
       0.028456017 -0.037798896 -0.08945252 0.0155091435
000060 5c 1e ae bb 1a 33 b1 bc 04 10 d3 bc 3b 69 0e 3d
       -0.0053136777 -0.021630812 -0.025764473 0.034768324
000070 f9 a7 44 bc 03 dd 83 3d 34 7c b6 3a aa a7 75 bc
       -0.012002938 0.06438639 0.0013922513 -0.0149935875
000080 15 a8 8c 3d 85 d9 ad bc 72 31 3b bd 79 68 d4 bd
       0.068679966 -0.021221885 -0.04570145 -0.10371489
000090 40 e6 c4 bd d7 f6 a7 3d d1 69 46 3d c0 d2 e8 bb
       -0.09614229 0.08201378 0.04844076 -0.0071052015
0000a0 fe 27 37 3d 6b dc 89 3c e5 47 90 bd c4 87 ae bd
       0.044715874 0.016828736 -0.07044963 -0.08521989
0000b0 00 2a 2a 3d c9 4b 1e 3d 63 c9 ad 3d ce e1 34 bd
       0.04154396 0.038646493 0.08485677 -0.044160657
0000c0 b4 bf a9 3d 0e 4a 94 bc 45 1f 25 bd 8d 9c 3b 3d
       0.082885176 -0.018101718 -0.040313024 0.045803595
0000d0 bc 58 cc bc b3 5a 54 3d f5 22 0c 3d ee 64 90 bd
       -0.024944656 0.05184431 0.034213025 -0.07050501
0000e0 77 56 51 bd 94 5f b6 bd dd 39 9d 3d e6 cb bd ba
       -0.05110785 -0.08904949 0.07677052 -0.0014480322
0000f0 e0 79 82 3d f2 d3 c3 bd f0 99 9e 3d 64 0a 39 bd
       0.06370902 -0.0956191 0.07744205 -0.045175925
000100 cf b9 44 bc d6 93 41 3b 23 b9 87 3b 53 a2 04 3c
       -0.012007191 0.002953758 0.004141943 0.008095342
000110 44 44 53 3d fb b8 d3 3c af eb 09 3c 6e b8 46 bd
       0.051578775 0.025845041 0.008418008 -0.04851573
000120 d1 fb d9 3c 80 eb d3 3c 94 41 b6 bc 40 cb 4d 3d
       0.026609333 0.025869131 -0.022248067 0.050242662
000130 0a 6f 4e bd 47 d6 6c bc 69 32 84 3c bd d2 26 bc
       -0.050398864 -0.014455385 0.016137319 -0.01018208
000140 3a 1f 5e 3d dc 0a b7 bd 85 43 24 3d 71 6a 87 bd
       0.054229 -0.08937618 0.040103454 -0.06612099

linear2.weight f4 [10, 84]
000000 33 c9 a0 bd 44 6f 9d bd 84 39 d4 3c fe 88 b5 3d
       -0.07850876 -0.07687238 0.025906332 0.0886402
000010 53 ef 56 bd 85 86 82 bd d9 38 83 3d 6f 48 bf bc
       -0.05247433 -0.06373314 0.06407327 -0.023349969
000020 29 fe 7c bc b9 0f d3 bd 7d e5 31 3d 7c 18 54 bd
       -0.015441456 -0.10305733 0.043431748 -0.051781163
000030 5e cb 30 bc f3 1d a5 bd 70 64 02 3d 63 72 65 bd
       -0.010790674 -0.08062353 0.031834066 -0.05601729
000040 40 59 29 bd a3 78 2b bd 30 9b e4 bd 54 d2 c9 bc
       -0.04134488 -0.041863095 -0.11162412 -0.024636425
000050 a4 5e e1 3d 43 2c b8 bd fa 2e 3f bd df 24 cd 3d
       0.110043794 -0.08992817 -0.04667566 0.10016798
000060 5e 3f df 3b 6a dd 77 bd e0 96 9e bd a5 7d fc 3a
       0.006812974 -0.06051389 -0.07743621 0.0019263519
000070 3e 43 87 bc 78 38 da 3d 52 f3 be 3d 1e fa cd bd
       -0.016511556 0.10655302 0.093237534 -0.10057472
000080 29 82 00 bd 0b 3d 94 bd 36 41 89 bd 23 c9 a8 3d
       -0.03137413 -0.072382055 -0.06701891 0.08241489
000090 6b 5b 24 bd d2 f2 04 3d d3 54 1d be 13 ec 2c 3d
       -0.040126245 0.032458134 -0.15364389 0.042217325
0000a0 ec c4 db bd 7e 3e 53 3d 4a 2c 5c bd 7e eb 57 3d
       -0.10730919 0.05157327 -0.053753175 0.052714817
0000b0 1e f4 80 3d 60 92 75 3d 28 f9 de 3c 8a 7a 7c 3d
       0.06296562 0.059954047 0.027218416 0.0616403
0000c0 15 7e 9d 3c 7b 8d fc 3d 6e 20 43 bd bf 2a 69 bd
       0.01922516 0.12331673 -0.04763835 -0.05692553
0000d0 1d 20 3f 3b d2 30 9b bd fa 0e 87 bd b3 40 15 bd
       0.0029163428 -0.07577671 -0.065946534 -0.036438655
0000e0 9b cf 01 bd 78 8f 59 bc 4e db 94 3d 6b 2d cd 3d
       -0.03169213 -0.0132788345 0.072683915 0.100184284
0000f0 93 85 b1 3d eb ba 9c bd 9e d1 76 bc 94 b2 55 bd
       0.086680554 -0.07652839 -0.015064625 -0.05217226
000100 92 67 83 3d d2 f0 f5 bc 64 ee 30 bd f4 f7 b4 3d
       0.06416239 -0.030022059 -0.043196097 0.08836356
000110 c5 5f 3c 3d 23 9d 37 bc 65 50 bd 3d a3 f4 c6 bd
       0.04598977 -0.011206898 0.0924385 -0.097146295
000120 14 62 23 bd e8 16 57 3d 27 d6 66 ba a1 53 82 bd
       -0.039888456 0.05251208 -0.0008805715 -0.06363607
000130 76 5f 3d bd 18 2b 2b ba a5 13 00 3d ea e7 e1 3c
       -0.046233617 -0.0006529554 0.031268734 0.027576406
000140 09 17 31 bd 80 a4 96 bd 30 43 e3 3d 08 80 74 bc
       -0.04323486 -0.07355595 0.110967994 -0.014923103
000150 75 d9 29 3d 4c 96 f6 bc 19 cc d2 3d 31 cf 1d bd
       0.04146715 -0.030100964 0.10292835 -0.03852767
000160 2b 13 8a ba 9f 7d 2a be dd 60 cd 3d 70 6a ad 3d
       -0.0010534277 -0.16649483 0.10028241 0.08467567
000170 8b 3d 78 3d 1c 3e 13 bd a8 20 98 bd af af 17 3d
       0.060605567 -0.035947904 -0.07428104 0.03703278
000180 88 ed 85 bd 7d 1e c9 3b 6f 8c c2 3d a8 7a 97 3d
       -0.06539446 0.0061376677 0.09499442 0.07396442
000190 b6 f2 f7 3d 9e 48 8a bd 1a f3 d8 bc b6 33 71 3d
       0.1210684 -0.06752132 -0.026483107 0.058887206
0001a0 9c 67 ef bd 13 83 0f be ca 8a 8b bd 84 27 78 3d
       -0.11689684 -0.14014845 -0.06813581 0.06058456
0001b0 af 73 a4 3d d7 a8 21 3e e7 ea 29 bd be 24 9e bd
       0.080298774 0.15787064 -0.041483786 -0.07721852
0001c0 36 5c 0d 3e 33 74 d6 bd 37 8c 0e bc 14 5c b0 3c
       0.13804707 -0.10471382 -0.008700422 0.021528281
0001d0 6e f7 86 3d d7 c9 88 bd 42 89 40 3c c0 ff 52 bd
       0.06590162 -0.06679123 0.011751475 -0.051513433
0001e0 b5 9a 14 3d ff a8 a7 3c 8d af 74 bc ee 7e d0 bd
       0.036280353 0.020466326 -0.014934433 -0.1018046
0001f0 7a c3 3e 3d 68 49 bd 3d 30 a5 a4 3d 91 ec 9e bd
       0.04657314 0.09242517 0.080393195 -0.07759965
000200 10 a8 e3 3d 69 7a bb 3c 6b 4c 89 bd cc 9e c5 bd
       0.1111604 0.022885518 -0.06704029 -0.09649429
000210 de dd c6 3d 78 ce 5d bc d2 c8 67 3c 42 0c dd bd
       0.097102866 -0.0135379955 0.014147 -0.107933536
000220 3e 8f 66 bd 68 99 a8 3d 5d ec 15 bd 9a 33 66 3c
       -0.05628895 0.08232385 -0.036602367 0.014050389
000230 97 1e ec bd b4 65 ef bd 1c d7 b8 bc 78 e3 d2 3b
       -0.11529272 -0.1168932 -0.02256351 0.006435808
000240 4b f4 b6 bd b3 93 17 bd 9b 57 46 bd 3a 23 d6 bd
       -0.08933314 -0.03700609 -0.04842339 -0.10455938
000250 4a f3 40 bc 5e fa a8 3b 4c 0a f2 39 a0 10 b1 bd
       -0.011776755 0.005156799 0.0004616551 -0.08645749
000260 b3 57 c7 bd 0f 45 17 3d 5b 71 bb 3c 78 d2 a4 bd
       -0.09733524 0.036931094 0.0228812 -0.08047956
000270 cc c9 f1 3b 0c 53 8a bc dc c4 ff 3d 22 d8 e8 bd
       0.0073787924 -0.016885303 0.1248872 -0.11369349
000280 d1 45 61 3d b0 ac 2d bd a2 cf 75 3c 12 67 c4 bc
       0.054998223 -0.042401016 0.015003117 -0.023974929
000290 9b 5e 43 bc 66 e8 b0 bc 0e 59 82 3d c6 2d fe 3c
       -0.011924411 -0.021595191 0.06364642 0.031027686
0002a0 06 6d c0 3d 09 92 a7 bd ed 99 8f 3c 03 9d 81 3d
       0.093957946 -0.08182151 0.017529452 0.06328776
0002b0 6a 43 2b bd 0e 2a fc 3c ef 2d 29 bd 79 4c 87 3d
       -0.041812338 0.030781772 -0.04130357 0.06606383
0002c0 34 b5 27 bc ae 71 aa bc 7b 74 b7 3d d9 b2 40 3c
       -0.010236073 -0.02080616 0.08957764 0.011761391
0002d0 3c 19 be 3d 78 a0 9e bc e6 34 cc bd 6c 69 07 bd
       0.09282157 -0.019363627 -0.09971027 -0.033059523
0002e0 8c eb b3 3c 18 88 96 3d dd 60 83 bd df 70 8c bb
       0.021962903 0.073501766 -0.064149596 -0.004285916
0002f0 94 4a 20 3d 65 65 51 bd 3d b9 c7 3b b3 87 17 bd
       0.039133623 -0.051122088 0.00609508 -0.036994647
000300 f2 96 c4 bd d2 d2 38 bd 09 e3 87 3d 7e 4c c2 3d
       -0.09599103 -0.04512293 0.066351004 0.09487246
000310 77 02 8b 3d 1c 71 bc 3d da 29 80 bc a4 7e 82 3d
       0.067875795 0.092012614 -0.015644956 0.06371811
000320 2e d6 4d bd 18 59 bc bd 19 8e 22 bd db f4 29 bd
       -0.050253086 -0.09196681 -0.039686296 -0.041493278
000330 51 94 3c 3d 7b c2 63 3d 64 6e d5 bd c3 ba b0 bc
       0.046039883 0.055605393 -0.10421446 -0.02157343
000340 e1 5b 26 be 84 68 0d 3e 91 c1 c2 3d 7d fa e8 bd
       -0.16245987 0.13809401 0.09509576 -0.11375902
000350 33 51 df bc a6 ca a8 3d e3 6b b4 bc fd 17 78 bc
       -0.027260398 0.08241777 -0.0220241 -0.015142438
000360 ab 3e 90 3d 5e d3 be 3d fd f6 18 bd de ab 46 3a
       0.07043203 0.09317659 -0.03734492 0.0007578711
000370 80 d6 2d bd 52 19 58 3c e8 67 fc 3c f6 18 d0 bd
       -0.04244089 0.013189631 0.030811265 -0.10161011
000380 4e 81 56 bd 42 82 73 3c da 81 9e 3d 1a b0 f1 bd
       -0.05236941 0.014862599 0.07739611 -0.11801167
000390 48 af f5 bc 05 14 9b 3d e7 04 f0 3c 56 1e 59 3d
       -0.029990807 0.07572178 0.029299213 0.053007446
0003a0 61 d2 91 bd 1e b9 e9 bb fb d0 1f 3a 23 70 ef bd
       -0.07120205 -0.0071326634 0.0006096509 -0.1169131
0003b0 18 07 a3 3d 5e 08 a2 bd 1d 3d 83 3c f2 d6 a0 bd
       0.079603374 -0.07911752 0.016020352 -0.078534976
0003c0 19 a9 4e 3d d3 7b 9f 3d e2 1b cd 3d 11 a8 97 bd
       0.050454233 0.077872895 0.10015084 -0.07405103
0003d0 34 8f ed bd 0b 54 05 3d d0 e1 e9 bd 31 2e 91 3d
       -0.115995795 0.032550853 -0.114200234 0.070888884
0003e0 5c 8d 06 3e c4 9f 0c 3d d1 e6 b1 3d 25 4c a7 bd
       0.13139862 0.034332052 0.08686603 -0.0816882
0003f0 fd 87 94 bd fa 82 50 bd 08 15 67 bd b4 33 fa bd
       -0.072525 -0.05090616 -0.05641654 -0.12216893

linear2.bias f4 [10]
000000 3b a9 87 3d 45 1c 2c 3d 6b 88 ae bd db af 60 3d
       0.06624075 0.042019147 -0.085221134 0.05485521
000010 d7 32 b4 3d ad ef 1d bd ab 53 23 3d 6a 5a 8a 3c
       0.087987594 -0.03855865 0.039874714 0.016888816
000020 d8 fb ea 3c 44 20 ee 3b
       0.028684542 0.00726703
